code/experiments/LIDN/model/model_best.pth (torch_old, 819445 bytes, 107 tensors)

mcfe_r.conv34_interpolation_head.layers.0.weight f4 [8, 1, 3, 4]
0.08151857 -0.089433305 -0.21280062 -0.033512253 -0.2251287 0.23673879 -0.23231801 0.4423573
-0.1334229 0.11735354 -0.058242127 -0.2197814 0.032556437 -0.42213655 0.09711355 -0.059908222
0.3743043 -0.09820968 0.2924466 0.06293189 0.004810739 -0.30013153 0.022598028 -0.0069856998
-0.010206772 0.015623216 0.003945689 -0.039279245 -0.57377106 0.25020936 0.07640613 0.22248818
0.5764422 -0.19245441 -0.1344544 -0.19905087 0.6209577 -0.08962249 0.062778175 -0.062023126
-0.12437458 -0.08516033 -0.004210635 0.061964013 -0.21065573 -0.074754395 -0.03399501 -0.021226078
-0.030758088 -0.24064429 -0.124230996 -0.19329774 0.136597 -0.04564086 0.27970168 0.21571378
0.0070452495 -0.3969588 0.40817457 -0.029259162 0.011772888 0.22203343 -0.0034164593 -0.017817443
-0.6302496 -0.12034818 0.18391559 0.12668777 0.16202779 0.06969 -0.024586743 -0.044008963
-0.03647116 -0.054409284 -0.05808134 0.09048192 0.18087049 0.4619454 -0.2044035 0.08879211
-0.3061271 0.0036066694 0.11540914 -0.18408233 0.109321654 -0.26795352 -0.31688064 0.47955307
-0.029859181 0.30957788 0.108608015 -0.42291346 -0.02144868 -0.018041352 0.12995669 -0.07803146
00000000: 35f3 a63d cf28 b7bd 68e8 59be 2544 09bd
00000010: 2388 66be a76b 723e c6e4 6dbe a87c e23e
00000020: 03a0 08be 0e57 f03d 4c8f 6ebd 600e 61be
00000030: e659 053d 4822 d8be 78e3 c63d 5362 75bd
00000040: d0a4 bf3e 2822 c9bd 90bb 953e 6fe2 803d
00000050: 67a3 9d3b d7aa 99be 801f b93c 4ce8 e4bb
00000060: 4e3a 27bc 84f8 7f3c d74a 813b 46e3 20bd
00000070: a9e2 12bf 711b 803e d17a 9c3d f1d3 633e
00000080: b791 133f c512 45be 6aae 09be fed3 4bbe
00000090: 15f7 1e3f ff8b b7bd d891 803d f60b 7ebd
000000a0: 1ab8 febd 8a68 aebd 5ef9 89bb facd 7d3d
000000b0: 23b6 57be d518 99bd 5a3e 0bbd 50e2 adbc
000000c0: 63f8 fbbc 756b 76be d26c febd d8ef 45be
000000d0: 15e0 0b3e e9f1 3abd 0f35 8f3e 13e4 5c3e
000000e0: d6db e63b 2f3e cbbe 42fc d03e e9b0 efbc
000000f0: 12e3 403c bb5c 633e ade6 5fbb e3f5 91bc
00000100: 0a58 21bf 1b79 f6bd 5e54 3c3e 70ba 013e
00000110: 9dea 253e a1b9 8e3d 236a c9bc be42 34bd
00000120: c862 15bd 45dc 5ebd b3e6 6dbd 964e b93d
00000130: 1d36 393e 1c84 ec3e 274f 51be a3d8 b53d
00000140: b1bc 9cbe df5d 6c3b a15b ec3d 1480 3cbe
00000150: 08e4 df3d 3431 89be 2e3e a2be fb87 f53e
00000160: 3e9b f4bc fe80 9e3e e16d de3d 1d88 d8be
00000170: 24b5 afbc 75cb 93bc 5e13 053e f5ce 9fbd

mcfe_r.conv34_interpolation_head.layers.0.bias f4 [8]
1.9316392 1.2780021 -0.24606915 -5.328892 0.3171159 -6.2120104 1.4277033 2.4970238
00000000: f43f f73f 9395 a33f 8df9 7bbe 4986 aac0
00000010: 045d a23e cac8 c6c0 fbbe b63f 3dcf 1f40

mcfe_r.conv34_interpolation_body.layers.0.weight f4 [1, 8, 3, 3]
0.086669624 0.014569668 -0.09258035 0.17637856 0.21805626 0.072070025 0.004269287 0.04460462
0.17420083 0.16668476 0.11837769 0.13192725 0.022513118 0.12667938 -0.03573243 0.043382354
-0.10712793 0.06641748 0.13028203 0.036264572 0.06546977 0.124234736 -0.0039022455 0.11292881
0.18219341 0.075586416 0.026437717 0.016196353 0.12057251 0.13941987 0.03201726 -0.008319276
-0.040107746 0.008222458 -0.047716893 -0.39123428 -0.19072191 -0.04260406 0.0021190324 -0.075410105
-0.020733422 0.05945154 0.1708954 0.024217533 0.1363353 -0.024397446 -0.10368856 -0.14214373
-0.058518037 0.18728063 -0.20627746 -0.1585655 -0.08805205 -0.14762767 0.060803853 -0.14782594
-0.07438539 0.1482334 0.0027720763 -0.2200355 0.113714464 0.054435883 -0.04672441 0.11676055
0.107678376 0.08517014 0.111090966 0.08563707 0.085591994 -0.11999235 0.15788642 0.123711154
00000000: d87f b13d 9eb5 6e3c c49a bdbd 959c 343e
00000010: 244a 5f3e 7399 933d 60e5 8b3b 56b3 363d
00000020: b461 323e 69af 2a3e 0170 f23d f017 073e
00000030: 6e6d b83c 3db8 013e 2b5c 12bd b2b1 313d
00000040: e365 dbbd e305 883d a768 053e 298a 143d
00000050: 0415 863d c86e fe3d d1bc 7fbb 3847 e73d
00000060: e990 3a3e 0dcd 9a3d e993 d83c 37ae 843c
00000070: b8ee f63d 15c4 0e3e 8824 033d 934d 08bc
00000080: 0548 24bd 7db7 063c ca72 43bd dc4f c8be
00000090: 9b4c 43be 9881 2ebd 77df 0a3b 9d70 9abd
000000a0: 23d9 a9bc 7583 733d 34ff 2e3e d963 c63c
000000b0: 7b9b 0b3e 27dd c7bc ab5a d4bd 208e 11be
000000c0: 9cb0 6fbd 7ec6 3f3e 663a 53be ff5e 22be
000000d0: a254 b4bd b52b 17be 760d 793d af5f 17be
000000e0: 5e57 98bd 7fca 173e b9ab 353b fc50 61be
000000f0: 21e3 e83d 29f8 5e3d 1862 3fbd 2820 ef3d
00000100: 7b86 dc3d af6d ae3d a983 e33d 7d62 af3d
00000110: db4a af3d 8dbe f5bd faac 213e 465c fd3d

mcfe_r.conv43_interpolation_head.layers.0.weight f4 [8, 1, 4, 3]
0.0013001339 -0.20728514 0.07169703 0.16941904 -0.030651318 -0.020027844 -0.34267348 -0.09924605
0.4302944 0.015320076 0.23329064 -0.38597128 0.0014546067 -0.030918272 0.02428188 -0.22840527
-0.042145874 0.26304293 -0.51151997 -0.035421535 0.5467247 0.010412848 -0.043223556 0.029983338
-0.006151166 -0.021923387 0.090445325 0.11677219 -0.19134384 0.07119019 -0.033643864 -0.010587761
0.5396771 -0.029925758 0.17990722 -0.6171304 0.22776903 0.34739766 0.11990649 -0.006652425
0.016615469 0.008871526 0.12575613 -0.9227827 0.09289802 -0.08833712 -0.072006226 0.100290805
-0.20401056 -0.25681132 0.12399767 0.4369658 0.25045538 -0.17710732 0.12600957 0.33148733
-0.19507648 -0.23827659 0.05073397 -0.13907455 0.066806406 0.6001811 0.054851875 -0.03377965
0.018907854 -0.018402029 -0.05851653 -0.5503937 -0.059221953 0.018256336 -0.05801064 0.021735054
-0.12556359 0.045732982 0.036631387 0.15572265 -0.31482524 0.06461144 0.13409673 0.12288586
0.16343834 0.016237514 -0.40550378 0.24954984 0.14447534 0.042126928 0.17062469 0.06348716
-0.4275993 0.007297259 -0.18109794 0.009820368 -0.026539138 0.015886638 0.40981957 -0.19694096
00000000: 4169 aa3a 8e42 54be e4d5 923d 2f7c 2d3e
00000010: 7918 fbbc 6f11 a4bc e672 afbe 8341 cbbd
00000020: 8c4f dc3e 0e01 7b3c bee3 6e3e 079e c5be
00000030: 80a8 be3a 5148 fdbc cbea c63c 12e3 69be
00000040: 27a1 2cbd 90ad 863e f9f2 02bf 2c16 11bd
00000050: 26f6 0b3f a69a 2a3c 2f0b 31bd 9e9f f53c
00000060: b88f c9bb ad98 b3bc 663b b93d 4226 ef3d
00000070: a4ef 43be 2acc 913d 26ce 09bd 4a78 2dbc
00000080: 4728 0a3f dd26 f5bc 9939 383e 42fc 1dbf
00000090: 493c 693e 1bde b13e 8991 f53d 96fc d9bb
000000a0: 2a1d 883c e159 113c 37c6 003e 7d3b 6cbf
000000b0: 5141 be3d 18ea b4bd 0078 93bd 4465 cd3d
000000c0: 25e8 50be c67c 83be 7ef2 fd3d fbb9 df3e
000000d0: b03b 803e 9f5b 35be a708 013e b5b8 a93e
000000e0: 21c2 47be c7fe 73be 6cce 4f3d 8f69 0ebe
000000f0: ccd1 883d 78a5 193f 5cac 603d 885c 0abd
00000100: a5e4 9a3c dabf 96bc 07af 6fbd 9ae6 0cbf
00000110: b892 72bd 508e 953c 919c 6dbd b60d b23c
00000120: be93 00be 8252 3b3d cb0a 163d c275 1f3e
00000130: c630 a1be 0153 843d a750 093e 95ab fb3d
00000140: 615c 273e 8904 853c 319e cfbe fe89 7f3e
00000150: 58f1 133e 498d 2c3d 3db8 2e3e 8e05 823d
00000160: 4cee dabe d81d ef3b bd71 39be 9ce5 203c
00000170: 9b68 d9bc b224 823c dfd3 d13e e4aa 49be

mcfe_r.conv43_interpolation_head.layers.0.bias f4 [8]
3.3452315 0.8960258 3.5871015 6.7182245 2.6570985 -1.4540908 2.6922567 -0.4897162
00000000: 4618 5640 f261 653f 1293 6540 b2fb d640
00000010: e70d 2a40 a61f babf ef4d 2c40 15bc fabe

mcfe_r.conv43_interpolation_body.layers.0.weight f4 [1, 8, 3, 3]
0.08295812 -0.3194613 -0.07180709 -0.20492877 3.2043423e-05 0.1364833 -0.048061218 -0.00094389234
-0.106323496 -0.1075277 -0.072826535 -0.07324311 -0.016401574 -0.16480018 -0.15322101 -0.01436066
-0.080197975 -0.023693787 -0.36852464 0.14972043 -0.0021291745 0.40718067 0.09926293 -0.09976549
-0.012402261 -0.26530445 0.03896518 0.09869173 0.2647679 0.18494056 0.11191964 0.19952725
0.18793993 -0.13415381 -0.14372933 -0.2525229 0.061658975 -0.019505195 -0.061283875 -0.08410131
0.17336518 -0.09494945 -0.10695638 0.17526425 0.25375548 -0.15870218 -0.26681858 -0.15597981
-0.08929796 -0.318444 -0.16341946 0.0148282 -0.12786685 0.01503363 -0.11351811 -0.1518095
-0.0053245877 0.15392527 0.0057539963 0.209515 -0.049132004 -0.27942458 0.25542533 0.07044664
0.08672656 0.018906085 0.018377135 0.07001796 0.13168621 -0.13877112 -0.15199193 -0.1093057
00000000: f2e5 a93d 6e90 a3be 980f 93bd d9d8 51be
00000010: 5d66 0638 47c2 0b3e d7db 44bd 8b6f 77ba
00000020: 22c0 d9bd 7c37 dcbd 1426 95bd 7c00 96bd
00000030: 985c 86bc 61c1 28be f8e5 1cbe f948 6bbc
00000040: d63e a4bd 7919 c2bc 43af bcbe 5050 193e
00000050: 9f89 0bbb fc79 d03e 5d4a cb3d d951 ccbd
00000060: da32 4bbc fcd5 87be f499 1f3d e41e ca3d
00000070: a88f 873e 0f61 3d3e 2036 e53d df50 4c3e
00000080: 5373 403e 9e5f 09be c82d 13be ae4a 81be
00000090: 1f8e 7c3d 5cc9 9fbc cd04 7bbd 4f3d acbd
000000a0: a486 313e db74 c2bd f20b dbbd 7978 333e
000000b0: 3dec 813e d382 22be 729c 88be 2cb9 1fbe
000000c0: d9e1 b6bd 180b a3be 6e57 27be fbf1 723c
000000d0: 87ef 02be 9d4f 763c 2f7c e8bd f373 1bbe
000000e0: e179 aebb 969e 1d3e 058c bc3b 1a8b 563e
000000f0: a43e 49bd bd10 8fbe 1cc7 823e 5446 903d
00000100: b29d b13d efe0 9a3c a58b 963c 9465 8f3d
00000110: c0d8 063e 041a 0ebe c6a3 1bbe abdb dfbd

mcfe_r.conv44_interpolation_head.layers.0.weight f4 [8, 1, 4, 4]
-0.04109395 0.048279382 0.01528172 0.08083586 0.0232605 0.056233067 -0.058742486 -0.24665888
-0.038756758 0.027297603 -0.028430862 0.04012118 0.009206483 -0.004207372 0.025137855 0.06829737
-0.027264845 0.00767286 0.04200342 -0.03616434 -0.14703079 0.12633424 -0.13804995 0.14307785
0.0167492 0.04342731 0.003998417 -0.19144526 -0.19572426 0.02346154 0.059712652 0.010204969
0.036679998 0.03772038 -0.03055024 0.019108213 0.013303289 -0.0070735808 -0.04689545 -0.016905336
0.036545333 -0.051097825 0.033655964 0.015600312 0.0024535523 -0.030757656 0.013907469 -0.01449155
0.044987343 -0.17891899 0.07437207 -0.0045829695 0.026513679 -0.25106582 0.025342148 0.05975848
0.068327464 0.03112013 0.01319159 -0.057587087 0.016688313 0.026549712 0.07206807 -0.0010863192
0.017638294 -0.026139736 -0.0039578914 -0.022755569 0.06992611 0.06886448 -0.06126527 0.09485381
-0.18612073 -0.1226182 0.07811254 -0.053954955 0.010877455 -0.015535357 0.11791173 -0.016209152
-0.008705388 -0.038336582 0.020409573 0.022804763 0.027766123 -0.026313758 0.0489552 0.004039181
-0.027440475 0.005773113 -0.061706364 0.052425466 0.060128596 0.08154318 -0.26980403 0.08090899
-0.038532548 -0.037677553 0.092056364 0.0025174017 0.18923159 -0.028361421 -0.101827964 -0.088461526
-0.010477028 -0.13238744 -0.088490695 0.024312438 -0.13328736 0.032034606 -0.09596172 0.014248692
-0.054377586 -0.035247963 -0.0047186106 -0.014517269 0.0063908943 -0.06363699 -0.032603677 -0.0016802627
0.21818538 -0.022432813 -0.021288073 -0.010593113 0.0066258176 -0.0043761213 -0.031808075 -0.024802273
00000000: 2152 28bd 9ac0 453d 2e60 7a3c 458d a53d
00000010: ce8c be3c a554 663d f69b 70bd 2594 7cbe
00000020: 68bf 1ebd 399f df3c d7e7 e8bc 1b56 243d
00000030: cad6 163c ffdd 89bb e7ed cd3c 7edf 8b3d
00000040: 865a dfbc 9d6c fb3b c70b 2c3d 0f21 14bd
00000050: 3d8f 16be c35d 013e f75c 0dbe 0083 123e
00000060: 9e35 893c d6e0 313d 2705 833b 3a0a 44be
00000070: f16b 48be 6a32 c03c 4195 743d be32 273c
00000080: c43d 163d af80 1a3d 7f44 fabc d488 9c3c
00000090: 0af6 593c 7fc9 e7bb 7215 40bd 0f7d 8abc
000000a0: 8fb0 153d f44b 51bd d6da 093d 7398 7f3c
000000b0: c7cb 203b 7bf7 fbbc 27dc 633c f76d 6dbc
000000c0: a644 383d 8a36 37be 6250 983d bc2c 96bb
000000d0: 3733 d93c b38b 80be 569a cf3c 4fc5 743d
000000e0: 45ef 8b3d a5ef fe3c 8a21 583c 70e0 6bbd
000000f0: eeb5 883c c87e d93c 6d98 933d d362 8eba
00000100: 2f7e 903c 0023 d6bc 33b1 81bb e369 babc
00000110: 6c35 8f3d d208 8d3d 4bf1 7abd b742 c23d
00000120: 6f96 3ebe 401f fbbd 78f9 9f3d dfff 5cbd
00000130: 5a37 323c 0388 7ebc b57b f13d 0ec9 84bc
00000140: 0ba1 0ebc d206 1dbd fa31 a73c 0ed1 ba3c
00000150: c875 e33c f38f d7bc 3f85 483d 1b5b 843b
00000160: d9ca e0bc 622c bd3b d0bf 7cbd 16bc 563d
00000170: 6749 763d 1c00 a73d c123 8abe 9db3 a53d
00000180: 4ed4 1dbd c753 1abd 0c88 bc3d fefa 243b
00000190: edc5 413e 3656 e8bc 2e8b d0bd 512b b5bd
000001a0: d7a7 2bbc 9390 07be 9c3a b5bd e12a c73c
000001b0: 7b7c 08be b836 033d 9487 c4bd 5973 693c
000001c0: 08bb 5ebd 2b60 10bd 939e 9abb d7d9 6dbc
000001d0: b56a d13b 1c54 82bd 6f8b 05bd 433c dcba
000001e0: fd6b 5f3e 05c5 b7bc 5364 aebc bc8e 2dbc
000001f0: 631d d93b 9165 8fbb 2f49 02bd 232e cbbc

mcfe_r.conv44_interpolation_head.layers.0.bias f4 [8]
-9.228467 3.9975228 3.0822127 -7.5553718 -9.346708 -10.425113 1.3551414 3.3805668
00000000: cda7 13c1 6ad7 7f40 f942 4540 9bc5 f1c0
00000010: 1e8c 15c1 43cd 26c1 4675 ad3f 355b 5840

mcfe_r.conv44_interpolation_body.layers.0.weight f4 [1, 8, 3, 3]
0.009857325 -0.013355794 0.009181954 -0.021269388 0.043335363 -0.012554348 0.021890266 0.021552864
-0.019250337 0.0051228544 -0.04654033 0.010418089 -0.007989302 -0.004851908 0.015690787 0.008070681
0.0008769282 0.005228535 -0.040088154 0.04272273 -0.030150367 0.077823006 -0.19798787 0.10377578
-0.025646124 0.03823402 0.02342528 0.005185644 0.0054960116 0.015855666 0.014967054 0.028326586
-0.004730917 -0.020392725 0.03977914 -0.038407475 0.011092771 0.047555692 -0.010708828 0.00211563
-0.01972399 -0.034626655 -0.008403804 0.029011022 -0.0051235333 0.020834327 -0.039237287 0.014377303
0.05285496 0.032309435 0.007860313 -0.045113537 0.017332423 -0.023843646 -0.06709206 -0.06372029
0.07678715 0.014226568 -0.04613103 -0.02079303 0.006849827 0.028180672 -0.010377784 0.0071872463
-0.0077052615 0.0007840117 -0.04023627 -0.007917624 0.002777172 0.010185857 -0.0007870253 -0.004946582
00000000: 9e80 213c 43d2 5abc e86f 163c 243d aebc
00000010: 6c80 313d c1b0 4dbc 3753 b33c a28f b03c
00000020: e2b2 9dbc 9edd a73b 13a1 3ebd a2b0 2a3c
00000030: 90e5 02bc c1fc 9ebb f789 803c e43a 043c
00000040: a8e1 653a 2154 ab3b 7a33 24bd 08fe 2e3d
00000050: e7fd f6bc ab61 9f3d 55bd 4abe 6588 d43d
00000060: d217 d2bc 479b 1c3d 5fe6 bf3c 56ec a93b
00000070: e317 b43b bee3 813c 6038 753c 280d e83c
00000080: cf05 9bbb a50e a7bc 74ef 223d 2851 1dbd
00000090: 74be 353c c2c9 423d 1574 2fbc 62a6 0a3b
000000a0: 3494 a1bc aed4 0dbd 1cb0 09bc 86a8 ed3c
000000b0: 50e3 a7bb c0ac aa3c 47b7 20bd c88e 6b3c
000000c0: 717e 583d e656 043d 8bc8 003c f9c8 38bd
000000d0: bafc 8d3c c053 c3bc 9067 89bd c97f 82bd
000000e0: 9542 9d3d 8d16 693c e4f3 3cbd 2556 aabc
000000f0: 8374 e03b 27db e63c 9507 2abc fe82 eb3b
00000100: 6b7c fcbb 2286 4d3a c9ce 24bd ecb8 01bc
00000110: 3701 363b 95e2 263c 6050 4eba f016 a2bb

mcfe_b.conv34_interpolation_head.layers.0.weight f4 [8, 1, 3, 4]
0.041736618 0.28000578 0.17363745 -0.56329453 -0.16707422 -0.2734337 0.13580357 0.29389876
0.06720566 0.05951009 -0.13852252 0.03108885 0.020957978 0.07557395 0.02077999 0.036562443
-0.06336624 -0.011100155 0.083843514 -0.05834299 0.05973802 0.40814513 -0.8634244 0.11462487
0.08251928 0.17096373 -0.35492498 0.014981695 0.08942526 0.08785845 -0.21085466 -0.11337567
0.022149244 0.092422634 0.044756573 0.08980862 0.05516749 0.18075398 0.26451042 0.0473101
-0.010720949 -0.20997617 -0.38625252 0.05763673 -0.041197926 0.04882806 0.14029998 -0.086934075
-0.019960431 0.0015579426 0.1229982 0.022610866 0.055263843 -0.022725672 0.00022466974 0.010182871
0.026757438 0.039125368 -0.8308773 0.051808544 -0.013461119 -0.06263995 0.1396091 -0.07134626
0.022287892 0.087103635 0.48841798 0.13276912 -0.0011546903 -0.017862463 -0.66853505 -0.060292326
0.19492356 0.06443439 -0.32561246 0.13447785 -0.5847172 0.018276116 -0.17846075 0.18308245
0.38698012 0.053727955 0.037418257 0.027920216 0.35496038 -0.24018298 -0.21864946 0.049270984
0.34441775 -0.10832304 -0.124357834 -0.052311823 -0.48621458 0.17882316 0.31253812 0.00087730563
00000000: 04f4 2a3d eb5c 8f3e 04ce 313e 1234 10bf
00000010: 8115 2bbe 80ff 8bbe 1710 0b3e e679 963e
00000020: 1fa3 893d dac0 733d d9d8 0dbe 0bae fe3c
00000030: 11b0 ab3c 84c6 9a3d cc3a aa3c 80c2 153d
00000040: 29c6 81bd 6ddd 35bc 26b6 ab3d 0ff9 6ebd
00000050: dbaf 743d 66f8 d03e 6209 5dbf 72c0 ea3d
00000060: deff a83d 1e11 2f3e bab8 b5be c975 753c
00000070: 9724 b73d 22ef b33d 49ea 57be 8131 e8bd
00000080: 5572 b53c 1448 bd3d ab52 373d 95ed b73d
00000090: 4ef7 613d 9217 393e e96d 873e 3cc8 413d
000000a0: eba6 2fbc fe03 57be e4c2 c5be 7e14 6c3d
000000b0: 28bf 28bd efff 473d ccaa 0f3e 7e0a b2bd
000000c0: 0f84 a3bc e133 cc3a 7be6 fb3d 6c3a b93c
000000d0: 575c 623d 302b babc 5395 6b39 0ed6 263c
000000e0: 6a32 db3c ec41 203d 60b4 54bf 3235 543d
000000f0: 068c 5cbc 6049 80bd b0f5 0e3e fd1d 92bd
00000100: 1995 b63c 6463 b23d ec11 fa3e a1f4 073e
00000110: fa58 97ba 4d54 92bc 1d25 2bbf 16f5 76bd
00000120: 0b9a 473e 2df6 833d adb6 a6be 90b4 093e
00000130: 07b0 15bf cbb7 953c 6abe 36be f779 3b3e
00000140: 4222 c63e d811 5c3d e343 193d f0b8 e43c
00000150: 5ebd b53e 87f2 75be a5e5 5fbe 5fd0 493d
00000160: 8657 b03e 78d8 ddbd 52af febd ec44 56bd
00000170: 1ef1 f8be 6b1d 373e ff04 a03e fcfa 653a

mcfe_b.conv34_interpolation_head.layers.0.bias f4 [8]
-1.8659617 -0.0012403226 4.2434387 7.4742684 4.883759 -0.21184029 -3.3898907 -2.3219972
00000000: d5d7 eebf 5292 a2ba 40ca 8740 352d ef40
00000010: c147 9c40 a9ec 58be f8f3 58c0 9a9b 14c0

mcfe_b.conv34_interpolation_body.layers.0.weight f4 [1, 8, 3, 3]
0.10881933 0.03330512 0.08074818 0.1883124 0.063743174 0.008451217 -0.11461382 0.020206364
0.04090071 0.0063114804 0.36114725 0.1139822 0.083371036 -0.061034974 0.11628388 0.12435045
0.15876791 0.1567131 -0.19466592 -0.13755538 0.11009306 0.13511287 -0.01858607 0.27398184
-0.17223798 0.11025795 -0.08584862 -0.0007971595 -0.35747996 0.0028763579 0.004553688 0.40765816
0.058148056 0.091249295 -0.17881781 -0.09000224 0.49297133 0.09659053 0.12475049 0.0012420489
0.2940826 -0.21244851 -0.14305371 -0.2849198 -0.12506755 0.13425323 0.10320698 0.113208674
0.03394367 0.20861624 0.013877228 0.049502514 0.022120213 0.020439407 0.13423756 0.023793507
0.12394703 0.16543457 0.007825812 -0.111240886 0.07938529 0.0101979645 -0.10176103 0.073091075
0.048401613 0.0363225 0.044278324 0.10848697 0.021311276 0.06634075 0.030919025 0.09728621
00000000: abdc de3d f36a 083d 4d5f a53d f7d4 403e
00000010: c88b 823d f976 0a3c a7ba eabd d187 a53c
00000020: 8187 273d 89d0 ce3b 4be8 b83e 806f e93d
00000030: 6fbe aa3d cfff 79bd 3e26 ee3d 73ab fe3d
00000040: 0e94 223e 6679 203e 8156 47be 51db 0cbe
00000050: 7878 e13d 075b 0a3e d041 98bc 5947 8c3e
00000060: 275f 30be ecce e13d 67d1 afbd 78f8 50ba
00000070: 9d07 b7be 4781 3c3b 1b37 953b 92b8 d03e
00000080: a82c 6e3d e9e0 ba3d 041c 37be 1853 b8bd
00000090: bd66 fc3e 41d1 c53d 2f7d ff3d 3fcc a23a
000000a0: ff91 963e 1a8c 59be ac7c 12be 02e1 91be
000000b0: b511 00be ae79 093e 2e5e d33d f3d9 e73d
000000c0: 8508 0b3d 7f9f 553e 505d 633c 26c3 4a3d
000000d0: 7335 b53c 8b70 a73c 9275 093e 9aea c23c
000000e0: f1d7 fd3d ae67 293e d637 003c 43d2 e3bd
000000f0: c194 a23d 5d15 273c 1668 d0bd c6b0 953d
00000100: c540 463d e7c6 143d 305d 353d 6b2e de3d
00000110: fc94 ae3c a9dd 873d e549 fd3c fe3d c73d

mcfe_b.conv43_interpolation_body.layers.0.weight f4 [8, 1, 4, 3]
-6.167619 -0.27526698 -0.04476625 -0.5267233 0.35987535 -0.017931804 0.15470816 0.06300384
-0.002498091 -0.03878788 -0.028024271 0.01888835 0.12929636 -0.5188425 0.24332094 0.35874945
0.035591673 0.16044472 -0.2724126 0.061948538 -0.37144518 -0.11463914 0.3217565 -0.03373321
-0.1591115 0.39574802 -0.1995308 0.18762106 -0.07131793 0.22485812 -0.31022778 -0.1511891
-0.36733773 0.06280684 0.2183264 0.16703211 0.112382606 -0.055583246 -0.04785461 -0.27153826
-0.14361088 0.43923083 0.11758487 0.2383703 -0.40025368 0.03445599 0.0022696597 -0.031892683
0.06689322 0.098394565 -0.13790466 0.020273594 0.25003013 0.10089504 -0.18288712 0.2818781
-0.10659941 -0.039873216 -0.051215444 -0.09611483 0.06316973 0.065630704 0.14292933 0.09200601
0.15460578 -0.11578698 -0.025178276 0.008579921 -0.201985 0.17206156 0.08359853 -0.688905
0.12102819 -0.11465961 -0.009903265 0.13136357 -0.2342457 0.08902732 0.22173543 -0.4350532
0.25353837 0.22699085 -0.38255304 0.13062873 0.09579751 0.06545623 0.06347735 0.1557219
-0.86535674 0.1304605 0.09018168 0.032749586 0.08889844 0.032749478 0.02626272 0.009378962
00000000: 235d c5c0 cbef 8cbe d15c 37bd 57d7 06bf
00000010: 9541 b83e b8e5 92bc d16b 1e3e 2808 813d
00000020: 03b7 23bb 0ae0 1ebd 2893 e5bc bebb 9a3c
00000030: 4466 043e ddd2 04bf 2029 793e 02ae b73e
00000040: 93c8 113d 9f4b 243e aa79 8bbe c0bd 7d3d
00000050: 102e bebe edc7 eabd 45bd a43e d62b 0abd
00000060: 20ee 22be 7c9f ca3e cd51 4cbe bc1f 403e
00000070: 230f 92bd 3541 663e 2dd6 9ebe 51d1 1abe
00000080: b113 bcbe dfa0 803d f590 5f3e 770a 2b3e
00000090: da28 e63d 42ab 63bd 3203 44bd 1007 8bbe
000000a0: bb0e 13be dde2 e03e 56d0 f03d 5817 743e
000000b0: 0dee ccbe b921 0d3d 92be 143b e7a1 02bd
000000c0: 50ff 883d 1783 c93d e136 0dbe cf14 a63c
000000d0: f303 803e 0fa2 ce3d c346 3bbe 5452 903e
000000e0: cb50 dabd 1952 23bd 49c7 51bd dad7 c4bd
000000f0: 225f 813d 6469 863d 115c 123e a66d bc3d
00000100: fa50 1e3e b921 edbd ac42 cebc cc92 0c3c
00000110: 28d5 4ebe e830 303e b535 ab3d 145c 30bf
00000120: a1dd f73d a8d2 eabd 4e41 22bc 2c84 063e
00000130: 1bde 6fbe f553 b63d 9d0e 633e 4bbf debe
00000140: c8cf 813e 4a70 683e fedd c3be 8ac3 053e
00000150: 7c31 c43d ea0d 863d 6a00 823d 9075 1f3e
00000160: 0588 5dbf 7097 053e 2cb1 b83d 6e24 063d
00000170: 6310 b63d 5124 063d ea24 d73c 38aa 193c

mcfe_b.conv43_interpolation_body.layers.0.bias f4 [8]
1.4246196 -0.039367966 0.039440364 0.18744148 -4.693944 2.455082 0.07214581 -5.725428
00000000: ef59 b63f 4e40 21bd 388c 213d a9f0 3f3e
00000010: ca34 96c0 1020 1d40 2fc1 933d b536 b7c0

mcfe_b.conv43_interpolation_head.layers.0.weight f4 [1, 8, 3, 3]
-0.05595684 -0.07239176 0.30855116 -0.15067492 -0.67145556 -0.1402146 -0.103354365 -0.42965496
0.06072433 -0.054706033 -0.12785526 -0.095013775 -0.06234098 -0.09167959 -0.15595713 -0.06366924
-0.021872569 0.036451235 -0.058659654 -0.25562483 -0.12184267 0.016877934 -0.047516517 -0.021053215
-0.037825704 -0.12719682 -0.0393038 -0.021386657 -0.14861375 -0.15446058 -0.16663493 -0.25405842
-0.118286714 0.03690972 -0.17330164 -0.27608335 -0.01646305 -0.094964355 -0.0016020566 -0.07706605
0.019329252 -0.1446127 0.21744911 0.28967032 -0.17107983 0.22829482 -0.14352946 -0.0065759323
0.12859249 -0.07861315 0.14264701 0.10691512 -0.048811328 0.091428794 -0.13770702 -0.077770315
-0.14416897 -0.09102176 -0.03121381 -0.13484292 -0.16949876 -0.095314726 -0.045679253 0.07192773
0.06873775 0.1200314 -0.025913866 0.16281785 0.22107686 0.6787597 0.47466195 0.22398676
00000000: 0033 65bd 2242 94bd 6bfa 9d3e 874a 1abe
00000010: 83e4 2bbf 6b94 0fbe 74ab d3bd bcfb dbbe
00000020: 13ba 783d 6f13 60bd 7dec 02be 9596 c2bd
00000030: 4159 7fbd 82c2 bbbd 3ab3 1fbe 0565 82bd
00000040: 1a2e b3bc e44d 153d 1b45 70bd 42e1 82be
00000050: a688 f9bd 9843 8a3c aea0 42bd cb77 acbc
00000060: 20ef 1abd e23f 02be 05fd 20bd 1233 afbc
00000070: 342e 18be ea2a 1ebe 59a2 2abe f213 82be
00000080: 4e40 f2bd a62e 173d fc75 31be cc5a 8dbe
00000090: 85dd 86bc ac7c c2bd 19fc d1ba ced4 9dbd
000000a0: 6158 9e3c 5a15 14be fbaa 5e3e ab4f 943e
000000b0: 8d2f 2fbe 1ec6 693e 63f9 12be eb7a d7bb
000000c0: c0ad 033e eeff a0bd 0f12 123e 50f6 da3d
000000d0: 63ee 47bd 053f bb3d 1203 0dbe 0b46 9fbd
000000e0: 08a1 13be 9e69 babd 1bb4 ffbc 4314 0abe
000000f0: 1591 2dbe 5e34 c3bd 2b1a 3bbd d94e 933d
00000100: 61c6 8c3d 06d3 f53d 5149 d4bc b9b9 263e
00000110: f961 623e 32c3 2d3f e406 f33e c95c 653e

mcfe_b.conv44_interpolation_body.layers.0.weight f4 [8, 1, 4, 4]
-0.2537537 0.07338438 -0.3360646 0.265606 -0.2317973 0.14636053 0.5747993 -0.42517242
-0.12993471 0.036123473 -0.1452681 0.42639697 -0.03807299 -0.012122019 -0.041407675 0.06655953
0.28713074 -0.24153325 -0.06605733 0.05895285 0.25387743 0.598053 0.25446898 -0.03472921
-0.09876146 -0.0010486101 -0.0555148 -0.060726047 -0.16740315 -0.3728525 -0.23861124 -0.046967313
-0.007081254 0.14870468 0.11015882 -0.00856381 0.09504177 0.2955633 0.4848048 0.15909211
0.024864487 0.04192394 0.0068143844 -0.057561938 -0.018012505 -0.42009968 -0.8939801 -0.013420078
0.1071327 -0.10437724 0.032123365 0.09343163 0.15197721 0.32134554 0.100343086 0.016728632
-0.06673838 -0.11489494 -0.18621856 0.053819437 -0.049541328 0.22496244 -0.15352859 0.00025811786
-0.07860248 -0.059895303 0.152393 0.18473697 -0.03220672 0.009507043 -0.20698105 -0.065804385
0.06056052 -0.12532996 -0.050478052 0.04111144 -0.11753128 -0.37644625 0.81791604 -0.22413865
-0.0594832 0.060476165 0.013819684 0.052123237 -0.9573429 -0.07083102 0.47809553 0.28749987
-0.39145195 -0.04266969 0.29269052 0.1760014 -0.002359176 0.025941921 0.06435952 0.037617493
0.017670387 0.059246838 0.011877323 -0.004663126 0.011720226 0.16852738 -0.047764678 0.029335076
0.28351086 0.15513954 -1.2237555 -0.17805608 0.13033259 0.20352511 -0.05313841 0.14281242
-0.24260059 -0.26024526 0.08571293 0.5227666 -0.093062215 -0.120583184 0.055349007 0.31115448
-0.067740284 0.022897895 0.140526 0.011406789 -0.015889255 0.028576067 -0.04784102 -0.2593239
00000000: 01ec 81be 8d4a 963d a910 acbe 82fd 873e
00000010: 455c 6dbe 89df 153e 0c26 133f 33b0 d9be
00000020: 9b0d 05be 35f6 133d 29c1 14be b450 da3e
00000030: 6cf2 1bbd 6f9b 46bc 189b 29bd 5d50 883d
00000040: cd02 933e 7e54 77be 1149 87bd 8b78 713d
00000050: 39fc 813e 001a 193f c249 823e 3740 0ebd
00000060: 7343 cabd 8471 89ba 7d63 63bd e0bb 78bd
00000070: bb6b 2bbe 86e6 bebe 8156 74be cc60 40bd
00000080: dd09 e8bb 0a46 183e f39a e13d 394f 0cbc
00000090: 42a5 c23d 1354 973e 5638 f83e 0be9 223e
000000a0: 9cb0 cb3c 70b8 2b3d 334b df3b 11c6 6bbd
000000b0: f68e 93bc 4e17 d7be e1db 64bf e3df 5bbc
000000c0: 6468 db3d bcc3 d5bd ca93 033d 1559 bf3d
000000d0: ea9f 1b3e 6787 a43e ad80 cd3d 7c0a 893c
000000e0: 22ae 88bd 0a4e ebbd 14b0 3ebe c571 5c3d
000000f0: d9eb 4abd 8e5c 663e 9936 1dbe fe53 8739
00000100: 56fa a0bd c754 75bd e90c 1c3e b02b 3d3e
00000110: 32eb 03bd 6ec3 1b3c d7f2 53be 73c4 86bd
00000120: 4f0e 783d 7f56 00be 13c2 4ebd 7864 283d
00000130: 3db4 f0bd 90bd c0be f262 513f 9a84 65be
00000140: a8a4 73bd dbb5 773d f56b 623c 2d7f 553d
00000150: 6d14 75bf db0f 91bd f0c8 f43e 2f33 933e
00000160: 646c c8be 6ac6 2ebd 88db 953e b639 343e
00000170: 689c 1abb 2784 d43c edce 833d cd14 1a3d
00000180: 7dc1 903c d0ac 723d 1a99 423c 23cd 98bb
00000190: 3106 403c 7192 2c3e e5a4 43bd 1d50 f03c
000001a0: 5628 913e e6dc 1e3e 05a4 9cbf 5554 36be
000001b0: e875 053e e368 503e a9a7 59bd 6b3d 123e
000001c0: 4a6c 78be de3e 85be 438a af3d 08d4 053f
000001d0: 6797 bebd 51f4 f6bd a4b5 623d a44f 9f3e
000001e0: 6bbb 8abd 5e94 bb3c 0ce6 0f3e 8ae3 3a3c
000001f0: 2f2a 82bc 5b18 ea3c f2f4 43bd 1ac6 84be

mcfe_b.conv44_interpolation_body.layers.0.bias f4 [8]
-0.8521729 -1.560063 0.07113018 0.5878655 -0.85521096 -1.246313 -0.0121378265 -2.148557
00000000: 0128 5abf 25b0 c7bf b3ac 913d 5a7e 163f
00000010: 1bef 5abf 2f87 9fbf bcdd 46bc f581 09c0

mcfe_b.conv44_interpolation_head.layers.0.weight f4 [1, 8, 3, 3]
0.19662212 0.0088317385 -0.079630926 0.1514592 0.20432784 -0.10878726 0.31597364 -0.027619574
-0.036149897 -0.041647483 -0.17489535 -0.23243132 -0.1148681 -0.0790578 -0.099200144 0.08874938
0.4497156 0.3401763 0.0086879525 0.09931944 0.013741808 0.20141982 -0.03309815 0.027867498
-0.38000283 -0.2531201 -0.21020031 0.10156578 -0.058569435 0.30679122 0.0067901956 0.16339841
0.21649395 -0.22489896 -0.3946454 -0.042568192 0.23233104 0.002096373 0.13851674 0.34889618
0.017351745 0.07595012 -0.075319625 -0.13198556 -0.1247396 -0.1312171 0.04166242 -0.0016635372
-0.1955517 -0.2858908 0.25100717 -0.1397302 -0.09011402 -0.044784803 0.30041173 -0.24285254
-0.35227823 -0.076522514 0.4547908 -0.19980022 0.019675437 0.022610366 -0.13780802 -0.18995191
-0.054346155 -0.060853448 0.18927284 0.018927628 -0.030354679 0.35757574 0.08306487 -0.24453513
00000000: 4f57 493e ffb2 103c 8a15 a3bd 1f18 1b3e
00000010: 513b 513e dbcb debd 4cc7 a13e 7242 e2bc
00000020: ea11 14bd 8d96 2abd c417 33be 7a02 6ebe
00000030: f73f ebbd 0ee9 a1bd 7229 cbbd 3cc2 b53d
00000040: 2041 e63e 972b ae3e ea57 0e3c fe67 cb3d
00000050: 5225 613c ff40 4e3e ed91 07bd 614a e43c
00000060: bb8f c2be f598 81be c03e 57be b801 d03d
00000070: 81e6 6fbd bd13 9d3e 4a80 de3b ea51 273e
00000080: 97b0 5d3e ea4b 66be f60e cabe fc5b 2ebd
00000090: 30e8 6d3e 4d63 093b 55d7 0d3e 85a2 b23e
000000a0: 3f25 8e3c bd8b 9b3d 2d41 9abd 3927 07be
000000b0: 7a77 ffbd c75d 06be 37a6 2a3d 0c0b daba
000000c0: b43e 48be 4760 92be 0384 803e 6f15 0fbe
000000d0: b38d b8bd 4570 37bd 91cf 993e 56ae 78be
000000e0: d05d b4be d6b7 9cbd 57da e83e 6e98 4cbe
000000f0: 622e a13c 6039 b93c 8c1d 0dbe c182 42be
00000100: 139a 5ebd 7741 79bd bdd0 413e 1d0e 9b3c
00000110: 60aa f8bc 2b14 b73e ea1d aa3d 6b67 7abe

mcfe_g.conv33_interpolation_head.layers.0.weight f4 [8, 1, 3, 3]
-0.036637533 0.092424594 0.025885398 -0.1684289 0.60412127 -0.075077355 -0.40651956 0.32610682
-0.36475822 0.028348297 -0.044463057 0.047508866 -0.37115994 0.3832002 -0.40977362 -0.22068773
0.6357706 -0.06227388 -0.13223986 0.018834779 -0.18302356 -0.20744279 0.51402277 -0.21602155
0.075409435 0.10758958 0.01620908 -0.27940592 0.17894492 0.077198185 0.47230014 -0.086932816
-0.38718924 -0.19441223 -0.11682612 0.320136 0.20984793 0.02593572 -0.059481736 0.3740999
-0.65079087 -0.16353275 -0.0002905011 0.033406068 -0.041765988 0.0006795631 -0.15217397 0.109176405
0.09648514 -0.48340502 0.43214634 0.18014358 -0.24353154 0.05055486 -0.43762898 0.41149765
0.07223939 -0.008050004 -0.00853803 -0.030597966 -0.018886851 0.018258205 -0.0017320953 0.11316822
0.4113405 -0.19496353 -0.27522632 -0.018317014 -0.056978073 0.032174595 -0.07236147 0.043607008
00000000: 3d11 16bd 1b49 bd3d 9d0d d43c a078 2cbe
00000010: b1a7 1a3f 28c2 99bd 5523 d0be 79f7 a63e
00000020: 97c1 babe b03a e83c e51e 36bd a898 423d
00000030: ad08 bebe d132 c43e d9cd d1be f7fb 61be
00000040: ddc1 223f e512 7fbd e369 07be 654b 9a3c
00000050: 876a 3bbe e26b 54be ff96 033f c134 5dbe
00000060: 4370 9a3d ed57 dc3d e8c8 843c 4b0e 8fbe
00000070: 563d 373e 151a 9e3d 53d1 f13e d509 b2bd
00000080: ab3d c6be 0014 47be 8842 efbd dee8 a33e
00000090: 60e2 563e 2677 d43c 1fa3 73bd 068a bf3e
000000a0: 3b9a 26bf 2175 27be 664e 98b9 cdd4 083d
000000b0: d012 2bbd b524 323a 7ed3 1bbe e197 df3d
000000c0: 009a c53d dd80 f7be 4942 dd3e 8f77 383e
000000d0: 5560 79be 9d12 4f3d e810 e0be d2af d23e
000000e0: 3ff2 933d 2ae4 03bc 18e3 0bbc 96a8 fabc
000000f0: 99b8 9abc 3b92 953c 7907 e3ba bdc4 e73d
00000100: 399b d23e 85a4 47be 77ea 8cbe 900d 96bc
00000110: d761 69bd 82c9 033d 4032 94bd 439d 323d

mcfe_g.conv33_interpolation_head.layers.0.bias f4 [8]
-0.23392522 1.3772358 0.2048405 -0.46467954 -4.0227547 -0.80349964 0.6240605 2.273874
00000000: 188a 6fbe 4349 b03f b5c1 513e 7aea edbe
00000010: 68ba 80c0 27b2 4dbf 6ec2 1f3f 2787 1140

mcfe_g.conv33_interpolation_body.layers.0.weight f4 [1, 8, 3, 3]
-0.03801464 -0.422266 -0.0017816278 0.118660375 -0.08374476 -0.0018300709 0.031820726 -0.05034134
0.013451759 -0.21293296 0.2655721 -0.22608475 -0.15345082 0.0080015 -0.17822686 -0.06479714
-0.00688788 0.007694025 -0.14685863 0.15068969 0.008745997 -0.18283744 -0.16250828 -0.18516602
-0.011494655 -0.013963125 -0.07387568 -0.15866542 -0.12993748 -0.05474502 -0.12032996 -0.20786124
-0.068137005 0.015148404 -0.08870875 -0.059582267 -0.11136567 0.011352218 -0.012753707 0.13127843
-0.006607822 -0.17589508 -0.051714305 -0.009185198 -0.06402239 -0.25392538 -0.08901964 -0.11156478
-0.118777536 -0.36586508 -0.04734931 0.00013043672 -0.0914536 -0.08837881 0.08119262 0.13223355
0.0041596177 0.082681976 0.22983359 -0.008481757 0.11308177 -0.36152494 -0.23615693 -0.059365273
-0.0009712544 0.08064662 0.26062799 -0.3552731 0.1220168 0.09969916 -0.29904324 0.1611621
00000000: 3db5 1bbd 4033 d8be 8285 e9ba 3604 f33d
00000010: 5f82 abbd fdde efba 7356 023d b932 4ebd
00000020: c464 5c3c 190b 5abe 11f9 873e c382 67be
00000030: 3622 1dbe b918 033c 1a81 36be 5db4 84bd
00000040: bab3 e1bb 291e fc3b 1c62 16be 664e 1a3e
00000050: 5f4b 0f3c bd39 3bbe 9268 26be 299c 3dbe
00000060: 1454 3cbc 97c5 64bc 224c 97bd 3079 22be
00000070: 550e 05be 503c 60bd 8e6f f6bd 94d9 54be
00000080: 6a8b 8bbd 0331 783c efac b5bd 890c 74bd
00000090: af13 e4bd a7fe 393c edf4 50bc da6d 063e
000000a0: 6e86 d8bb d71d 34be 61d2 53bd 837d 16bc
000000b0: 2c1e 83bd 8202 82be ee4f b6bd 137c e4bd
000000c0: a341 f3bd ab52 bbbe 5af1 41bd d7c5 0839
000000d0: 064c bbbd f3ff b4bd 5148 a63d 3b68 073e
000000e0: 674d 883b 2b55 a93d 7f59 6b3e 11f7 0abc
000000f0: 6a97 e73d cc19 b9be 1fd3 71be 0029 73bd
00000100: c89b 7eba 0e2a a53d 0871 853e 5be6 b5be
00000110: f2e3 f93d 132f cc3d 321c 99be ad07 253e

mcfe_g.multi_core_g1.conv34_interpolation_head.layers.0.weight f4 [8, 1, 3, 4]
0.11672218 -0.36552078 0.4333577 -0.19222558 -0.07959057 0.32191455 -0.4223491 0.23027143
-0.026022075 0.05142033 -0.031487748 -0.039197065 0.028052466 -0.3829123 0.48710573 -0.046311773
-0.061591208 -0.10137255 0.07824053 0.4215231 0.15701705 -0.31124833 -0.22538882 -0.058555633
-0.05648209 -0.022022434 0.03418269 0.02045031 0.37897474 -0.7394098 0.4083222 -0.03576773
-0.104600005 0.15901333 -0.035941325 -0.014476793 -0.5287344 0.4708857 0.060745183 -0.00961232
-0.19221056 0.25785205 -0.042170025 -0.012254483 -0.0020384928 -0.007518425 -0.028267113 0.026116801
0.016255835 -0.056421306 0.04601877 -0.045510963 0.019681074 0.06408086 0.5077164 -0.09998527
-0.042026184 -0.010801638 0.009879617 0.016112775 -0.028370405 -0.3417048 0.43286908 0.052218914
0.13655902 -0.6129181 -0.00083965465 -0.031488 0.072332025 0.16571291 0.22126983 -0.07991362
0.012491034 -0.06509597 -0.2835198 -0.24060827 0.025335658 -0.037495174 0.61017907 -0.066273175
-0.041674078 -0.04650291 0.1202278 -0.0063090627 0.41622123 0.045796994 -0.002712504 -0.052862808
-0.3210706 0.26831895 -0.30975315 -0.019668099 -0.1752223 -0.18868709 0.20734198 0.05953049
00000000: 0a0c ef3d 8a25 bbbe 0fe1 dd3e c8d6 44be
00000010: 6100 a3bd fcd1 a43e 243e d8be 46cc 6b3e
00000020: 3f2c d5bc 209e 523d 4cf9 00bd 1a8d 20bd
00000030: 49ce e53c 150d c4be ec65 f93e 6ab1 3dbd
00000040: 1047 7cbd 699c cfbd 923c a03d e0d1 d73e
00000050: 14c9 203e f15b 9fbe 54cc 66be 08d8 6fbd
00000060: c459 67bd 6468 b4bc 2603 0c3d 6987 a73c
00000070: fa08 c23e f649 3dbf 9b0f d13e 2f81 12bd
00000080: 8738 d6bd 64d4 223e 3637 13bd 1230 6dbc
00000090: 235b 07bf ee17 f13e f1cf 783d fe7c 1dbc
000000a0: d8d2 44be 2f05 843e 7aba 2cbd 07c7 48bc
000000b0: 3c98 05bb 1f5d f6bb 6f90 e7bc e7f2 d53c
000000c0: f52a 853c 071a 67bd 2e7e 3c3d b469 3abd
000000d0: 343a a13c d33c 833d b4f9 013f 14c5 ccbd
000000e0: a623 2cbd 5af9 30bc 1ede 213c f0fe 833c
000000f0: 0d69 e8bc eef3 aebe 04a1 dd3e 80e3 553d
00000100: 21d6 0b3e 33e8 1cbf 451c 5cba 90f9 00bd
00000110: d022 943d a5b0 293e 8f94 623e c1a9 a3bd
00000120: 32a7 4c3c 0951 85bd 8229 91be 0462 76be
00000130: ba8c cf3c 8a94 19bd b234 1c3f 3bba 87bd
00000140: 70b2 2abd d679 3ebd fe39 f63d 41bc cebb
00000150: f31a d53e a195 3b3d 44c4 31bb ac86 58bd
00000160: 5e63 a4be 1a61 893e f797 9ebe fe1e a1bc
00000170: 7a6d 33be 3037 41be 7551 543e 3ed6 733d

mcfe_g.multi_core_g1.conv34_interpolation_head.layers.0.bias f4 [8]
-0.12388285 -0.24084453 0.9445737 -2.0687863e-05 2.6743069 -0.24741063 -1.3617495 0.9768939
00000000: 4bb6 fdbd f39f 76be 95cf 713f d98a adb7
00000010: d827 2b40 3659 7dbe cf4d aebf b815 7a3f

mcfe_g.multi_core_g1.conv34_interpolation_body.layers.0.weight f4 [1, 8, 3, 3]
-0.028460355 -0.24666834 -0.08364638 -0.1351031 -0.01813645 -0.11221612 0.037434418 -0.042275783
-0.038971715 0.081599616 0.090838306 0.00853304 0.12787391 0.049699556 0.046777535 0.015229939
0.013479877 -0.011436236 -0.024907993 0.00797642 -0.08209479 -0.20283355 -0.14785153 -0.1822955
-0.12700608 -0.06091297 -0.034957804 0.004584473 -0.16304956 -0.09834769 -0.052736074 -0.045787748
-0.262353 0.039622094 -0.06748759 -0.19308077 -0.47571757 -0.044175226 0.036643296 -0.078465074
0.5950289 0.1578175 -0.02730784 0.019130087 -0.04359285 0.08086488 0.1237092 -0.0022226246
0.124009505 0.16817711 0.09131635 0.037969936 0.08388077 -0.002804268 -0.05273429 0.09182878
-0.015328485 0.3181179 0.035616063 -0.04586408 -0.0014454231 -0.0018392311 -0.0057037664 0.027237633
-0.08979298 0.16186175 0.018466776 -0.015386696 0.07008224 0.021070857 -0.012144459 0.01978585
00000000: b125 e9bc a096 7cbe cb4e abbd 7858 0abe
00000010: e492 94bc 91d1 e5bd d554 193d 5f29 2dbd
00000020: cea0 1fbd b31d a73d 6f09 ba3d 2ace 0b3c
00000030: 61f1 023e c391 4b3d cd99 3f3d fe86 793c
00000040: b4da 5c3c 0d5f 3bbc d90b ccbc 88af 023c
00000050: 5021 a8bd 99b3 4fbe 6466 17be acab 3abe
00000060: e20d 02be e17f 79bd ea2f 0fbd 5939 963b
00000070: 77f6 26be 846a c9bd c801 58bd ef8b 3bbd
00000080: 2253 86be c74a 223d ef36 8abd f7b6 45be
00000090: 4191 f3be 15f1 34bd 4817 163d 4cb2 a0bd
000000a0: d053 183f e99a 213e b1b4 dfbc b3b6 9c3c
000000b0: 6b8e 32bd 7c9c a53d 405b fd3d 74a9 11bb
000000c0: b2f8 fd3d 9f36 2c3e 1104 bb3d 5d86 1b3d
000000d0: aec9 ab3d cfc7 37bb e9ff 57bd ba10 bc3d
000000e0: 5324 7bbc 59e0 a23e 26e2 113d f9db 3bbd
000000f0: 5a74 bdba 5b12 f1ba a9e6 babb 7521 df3c
00000100: 62e5 b7bd 16bf 253e a347 973c 7b18 7cbc
00000110: 4787 8f3d ca9c ac3c 8ef9 46bc ef15 a23c

mcfe_g.multi_core_g1.conv43_interpolation_head.layers.0.weight f4 [8, 1, 4, 3]
0.07899515 0.027598433 -0.10619212 -0.19285247 0.44369873 -0.63927674 0.18051648 0.20059301
0.141215 -0.088251255 0.035982322 -0.09810929 0.00535389 0.011381292 -0.019425763 -0.030984623
-0.31071907 -0.020680277 0.033197112 0.85589176 0.06783789 -0.007204295 -0.56455606 -0.028360054
0.0412122 -0.0551833 0.031483885 -0.15157846 0.009171992 -0.11103203 -0.17364003 0.76599044
0.06681255 -0.4241334 -0.030712869 0.012517365 -0.011840728 0.013459097 -0.0046083042 0.021037199
-0.04111648 0.036904406 -0.025901623 0.45795774 0.21092881 0.012749187 -0.45334116 -0.23794083
-0.005648993 -0.027867446 -0.025961163 0.027730187 -0.033532437 0.074743725 0.14551038 -0.10940524
-0.25721216 -0.008367992 0.43343356 -0.12276755 0.0009310354 0.010020682 -0.022698326 0.010585788
0.04829962 -0.054380707 -0.026008407 -0.30554542 0.30843422 0.019875718 0.30994377 -0.29175347
-0.11544469 0.06634296 -0.027682126 0.5155837 -0.32894376 0.028540114 -0.019876458 -0.018793149
-0.082941316 -0.04958635 0.027831834 0.06481361 -0.0370223 -0.002549771 -0.01667335 -0.10956397
0.06436432 -0.070655145 0.28134325 -0.20041795 0.26686722 0.29007584 -0.5843199 0.12666146
00000000: 36c8 a13d 1c16 e23c 417b d9bd 1e7b 45be
00000010: 7b2c e33e a4a7 23bf 50d9 383e 4168 4d3e
00000020: aa9a 103e 13bd b4bd 3362 133d 86ed c8bd
00000030: af6f af3b 9978 3a3c c722 9fbc 77d3 fdbc
00000040: 9216 9fbe af69 a9bc b2f9 073d b91b 5b3f
00000050: 97ee 8a3d 0212 ecbb bf86 10bf 5853 e8bc
00000060: 20ce 283d e207 62bd 3ff5 003d 6237 1bbe
00000070: 1f46 163c c364 e3bd b1ce 31be f317 443f
00000080: 05d5 883d 0328 d9be 8e99 fbbc a215 4d3c
00000090: 9dff 41bc 8b83 5c3c 4201 97bb 3456 ac3c
000000a0: c169 28bd 1329 173d a42f d4bc 7079 ea3e
000000b0: b9fd 573e f7e1 503c 551c e8be c3a6 73be
000000c0: 301b b9bb 454a e4bc 81ac d4bc 6b2a e33c
000000d0: 4f59 09bd 3d13 993d ac00 153e db0f e0bd
000000e0: 50b1 83be e719 09bc 01eb dd3e 8e6d fbbd
000000f0: ba10 743a c92d 243c d7f1 b9bc 0370 2d3c
00000100: d3d5 453d 4ebe 5ebd 950f d5bc 7370 9cbe
00000110: 17eb 9d3e 67d2 a23c f3b0 9e3e b660 95be
00000120: 446e ecbd d1de 873d a0c5 e2bc 4bfd 033f
00000130: 516b a8be f5cc e93c f4d3 a2bc 17f4 99bc
00000140: 23dd a9bd 0e1b 4bbd 96ff e33c ffbc 843d
00000150: b2a4 17bd 0f1a 27bb 8d96 88bc 1363 e0bd
00000160: 71d1 833d a5b3 90bd 390c 903e 5d3a 4dbe
00000170: d2a2 883e d284 943e fd95 15bf 8bb3 013e

mcfe_g.multi_core_g1.conv43_interpolation_head.layers.0.bias f4 [8]
-0.22719856 0.5749805 -1.7039855 4.2086153 2.8059082 -1.0329617 -3.368865 -4.1841283
00000000: bda6 68be ec31 133f 321c dabf faac 8640
00000010: 0094 3340 1738 84bf 7c9b 57c0 61e4 85c0

mcfe_g.multi_core_g1.conv43_interpolation_body.layers.0.weight f4 [1, 8, 3, 3]
-0.08695972 -0.06994452 -0.0174519 -0.020597491 -0.035572704 0.03164333 -0.106584534 -0.2583414
-0.013338919 0.08201683 0.2348184 0.09604995 -0.013979636 0.43664637 0.15631203 0.15508507
0.35196075 0.21620533 -0.037572607 -0.10228779 -0.10818156 -0.008145075 -0.17594807 -0.16218485
-0.042392153 -0.09967879 -0.068542555 0.005988557 0.15463164 -0.1155828 0.3656327 0.11583823
0.0502421 -0.09186939 -0.2702259 -0.096798025 -0.20036191 0.27176172 -0.0482834 -0.12790217
0.013447956 0.028517963 0.004102001 0.15583616 -0.07434733 -0.03313753 0.12288963 0.13827685
0.14762075 0.009855473 0.16096492 0.06667116 -0.1851597 0.052181724 -0.006466245 -0.0032770957
0.02807719 0.19344151 0.06345733 0.06160634 0.09291242 -0.18078496 -0.29853013 -0.14467889
-0.032771047 -0.11173447 0.013378855 -0.09030801 -0.09040999 -0.020925814 -0.0653461 -0.0864813
00000000: f017 b2bd 133f 8fbd 49f7 8ebc 12bc a8bc
00000010: afb4 11bd 709c 013d fe48 dabd 5345 84be
00000020: 7b8b 5abc 71f8 a73d 3c74 703e d6b5 c43d
00000030: d80a 65bc 1d90 df3e 4310 203e 9fce 1e3e
00000040: 3334 b43e ee64 5d3e bce5 19bd 437c d1bd
00000050: 4b8e ddbd ec72 05bc bb2b 34be c913 26be
00000060: 65a3 2dbd 6524 ccbd 0a60 8cbd a83b c43b
00000070: c257 1e3e adb6 ecbd 3634 bb3e 983c ed3d
00000080: a9ca 4d3d 0526 bcbd 0d5b 8abe 0b3e c6bd
00000090: ac2b 4dbe 5a24 8b3e d0c4 45bd c9f8 02be
000000a0: d154 5c3c 819e e93c 146a 863b 8493 1f3e
000000b0: 6a43 98bd 38bb 07bd 8fad fb3d 7298 0d3e
000000c0: e529 173e da78 213c fdd3 243e e48a 883d
000000d0: 819a 3dbe 81bc 553d cbe2 d3bb 8bc4 56bb
000000e0: 2302 e63c 8815 463e ebf5 813d ee56 7c3d
000000f0: de48 be3d b11f 39be f1d8 98be b426 14be
00000100: ef3a 06bd 0bd5 e4bd fc32 5b3c 68f3 b8bd
00000110: df28 b9bd 9d6c abbc 2dd4 85bd 1c1d b1bd

mcfe_g.multi_core_g2.conv34_interpolation_head.layers.0.weight f4 [8, 1, 3, 4]
0.011864385 0.04280519 -0.19744508 -0.05898036 0.03406423 -0.6542864 0.3586657 -0.039291993
-0.0039633005 -0.14839998 0.44570917 0.06838635 -0.0016547492 -0.009835422 -0.015151535 0.07533377
-0.0032259568 -0.0040613795 -0.006095849 0.043392982 0.0019875022 0.0035793926 -0.0058153546 -0.006473303
-0.02208983 -0.14831826 -0.033542205 -0.004223001 0.00461061 0.27360138 0.0148323225 -0.008580736
0.011189251 -0.0032052158 0.0010602211 0.0031460344 0.008264464 0.016494643 -0.019356132 -0.0035121597
-0.017186807 0.06174237 -0.08103565 -0.016751302 -0.049446594 0.2429134 0.29809403 -0.017342485
-0.005668995 0.073676564 0.32531923 0.017661035 -0.008139798 -0.018446844 -0.030287515 -0.043302253
0.0038923372 -0.0014889027 0.055038374 0.016978795 -0.066498786 0.35037616 -0.48317745 0.06214302
-0.008130994 0.2598509 -0.2946367 0.024121268 0.03579017 -0.0742516 0.057729464 -0.053783286
0.0024926986 -0.0020090553 0.0041923593 0.0017907331 0.009899023 0.008210133 0.0068325954 0.0034683906
-0.013719369 -0.085502826 -0.0007712451 -0.000990921 -0.0019372228 -0.036593396 0.16306783 0.05848901
-0.034992702 0.6569754 -0.35386404 0.033776447 0.0012400207 0.15479171 -0.42304042 -0.07056557
00000000: d662 423c 7f54 2f3d 0b2f 4abe 6495 71bd
00000010: ef86 0b3d 507f 27bf 08a3 b73e a4f0 20bd
00000020: 93de 81bb 2af6 17be fe33 e43e 250e 8c3d
00000030: 2be4 d8ba c024 21bc 253e 78bc 9748 9a3d
00000040: 936a 53bb 5215 85bb b0bf c7bb d7bc 313d
00000050: c140 023b 3e94 6a3b bb8e bebb 001e d4bb
00000060: bbf5 b4bc bee0 17be 8d63 09bd 1a61 8abb
00000070: 9a14 973b 7b15 8c3e 4503 733c 3796 0cbc
00000080: 1f53 373c 990e 52bb 1ef7 8a3a b32d 4e3b
00000090: ad67 073c c61f 873c c090 9ebc 432c 66bb
000000a0: 59cb 8cbc 91e5 7c3d 05f6 a5bd 073a 89bc
000000b0: 8388 4abd 4abe 783e c89f 983e d411 8ebc
000000c0: fac2 b9bb bde3 963d 3e90 a63e e0ad 903c
000000d0: ca5c 05bc d61d 97bc 861d f8bc b45d 31bd
000000e0: 9516 7f3b 4927 c3ba eb6f 613d 1d17 8b3c
000000f0: 8430 88bd 8164 b33e 0963 f7be ae89 7e3d
00000100: dc37 05bc 2d0b 853e 9fda 96be f799 c53c
00000110: b798 123d 3911 98bd bb75 6c3d dd4b 5cbd
00000120: 8b5c 233b 5baa 03bb 0f60 893b 08b7 ea3a
00000130: 832f 223c cb83 063c f7e3 df3b f04d 633b
00000140: 34c7 60bc 1b1c afbd 622d 4aba cbe1 81ba
00000150: 69ea fdba f5e2 15bd 41fb 263e 2c92 6f3d
00000160: 8254 0fbd 8a2f 283f ab2d b5be 2c59 0a3d
00000170: 3188 a23a b881 1e3e c198 d8be ae84 90bd

mcfe_g.multi_core_g2.conv34_interpolation_head.layers.0.bias f4 [8]
-3.9429774 -11.7947445 -0.135473 1.9827129 -0.7766023 1.0550749 6.404666 2.9163444
00000000: be59 7cc0 46b7 3cc1 6fb9 0abe 89c9 fd3f
00000010: 69cf 46bf b20c 873f 06f3 cc40 63a5 3a40

mcfe_g.multi_core_g2.conv34_interpolation_body.layers.0.weight f4 [1, 8, 3, 3]
0.0054717204 0.08319162 0.028969228 -0.085063 0.45205212 0.019866759 0.006992022 0.025118325
0.023746302 -0.060517333 -0.033047553 -0.0180138 -0.12149097 -0.12195676 -0.034530714 0.56239504
0.009089065 -0.06627578 -0.0014293531 0.026418442 0.009018033 -0.015608718 0.07057845 -0.16154301
-0.012325047 -0.07055462 0.15698455 -0.009780313 0.107645646 -0.0074222046 0.047366712 0.35922837
-0.20925018 0.01835841 0.033249486 -0.017153658 -0.013655552 0.04305936 0.029020244 -0.0022900952
0.2190835 0.04302298 -0.32725418 -0.13025866 0.013616203 0.0063937786 0.0016456998 0.0027177474
0.022034824 -0.010712337 0.008352199 -0.0028133958 0.115827866 -0.040935263 -0.059356723 -0.1657193
0.4833297 0.031092111 -0.22046798 0.22031096 -0.007764196 0.014957213 -0.16984984 0.0018038817
-0.077558525 -0.030953815 0.09074578 -0.5024532 0.012017996 -0.0075046876 -0.0009909858 -0.014102554
00000000: 1e4c b33b 5e60 aa3d e050 ed3c 8335 aebd
00000010: 6073 e73e 9dbf a23c 551d e53b f2c4 cd3c
00000020: 9b87 c23c 06e1 77bd df5c 07bd ad91 93bc
00000030: 42d0 f8bd 77c4 f9bd 1470 0dbd 1ff9 0f3f
00000040: 4dea 143c 99bb 87bd 2259 bbba 7d6b d83c
00000050: 5fc0 133c b5bb 7fbc 6f8b 903d 886b 25be
00000060: feee 49bc f17e 90bd 8fc0 203e 9b3d 20bc
00000070: 5275 dc3d f735 f3bb 9903 423d c8ec b73e
00000080: ae45 56be 6064 963c 9d30 083d d485 8cbc
00000090: 89bb 5fbc 035f 303d ddbb ed3c 6c15 16bb
000000a0: 6d57 603e dd38 303d dc8d a7be 8762 05be
000000b0: 7f16 5f3c e782 d13b 86b4 d73a 3c1c 323b
000000c0: 6082 b43c cc82 2fbc a9d7 083c f360 38bb
000000d0: 2937 ed3d bcab 27bd 0920 73bd 52b2 29be
000000e0: fe76 f73e e2b4 fe3c 5cc2 61be 3299 613e
000000f0: cc6a febb 190f 753c 1eed 2dbe 3a70 ec3a
00000100: 01d7 9ebd db92 fdbc ecd8 b93d c6a0 00bf
00000110: 21e7 443c e2e9 f5bb f7e3 81ba 660e 67bc

mcfe_g.multi_core_g2.conv43_interpolation_head.layers.0.weight f4 [8, 1, 4, 3]
-0.022331133 0.08055329 -0.054476406 -0.2997419 0.5319838 -0.2352697 -0.01545922 0.030710198
-0.039476495 0.0045663584 0.01856908 -0.013545887 0.15328799 0.60903525 0.0040116473 -0.2636507
-0.43945396 -0.015318824 0.091819756 -0.17598417 0.034905195 0.003966424 0.023323813 -0.027751682
-0.39845303 0.09229876 0.26418057 -0.057043046 0.09647866 -0.07337213 0.33089226 -0.16825047
-0.092099085 -0.45153785 0.13442746 0.3101249 0.014151239 -0.018523488 0.005205129 0.22224629
0.27651772 -0.10645387 -0.24250586 0.579057 -0.48898026 0.040242966 -0.18885948 -0.087498784
-0.1930344 -0.22229686 0.13298474 0.03677761 0.17439124 -0.2521333 0.33053866 0.033629913
-0.13264038 -0.185073 0.047754988 0.19392414 -0.020898899 0.010586998 0.0044475407 0.00473302
-0.0024790654 -0.020723792 0.053143673 -0.6788941 0.69411975 -0.022365944 -0.010106981 -0.01683215
0.0022346615 -0.0084201135 0.0025830008 0.008038118 -0.052274685 -0.00094844494 0.27618563 -0.73666763
0.5217092 -0.0032996014 -0.022098085 0.01867608 -0.04879407 0.14489855 -0.029675642 -0.0012180172
-0.6693538 -0.012288566 -0.02793939 0.6637137 0.007907181 0.07312325 -0.16010007 0.050683297
00000000: c8ef b6bc 20f9 a43d a722 5fbd c577 99be
00000010: 1730 083f 8aea 70be ab48 7dbc f493 fb3c
00000020: 1bb2 21bd 64a1 953b 2f1e 983c 91ef 5dbc
00000030: 87f7 1c3e bce9 1b3f 2374 833b 39fd 86be
00000040: 1c00 e1be cefb 7abc ff0b bc3d 3235 34be
00000050: c0f8 0e3d c7f8 813b 9511 bf3c 7f57 e3bc
00000060: 0902 ccbe 2207 bd3d ad42 873e f8a5 69bd
00000070: 9b96 c53d 2144 96bd b66a a93e da49 2cbe
00000080: 729e bcbd f82f e7be 5aa7 093e b1c8 9e3e
00000090: 99da 673c 92be 97bc c98f aa3b 8894 633e
000000a0: bb93 8d3e 7d04 dabd 7553 78be 143d 143f
000000b0: 9f5b fabe cfd5 243d 6164 41be 9032 b3bd
000000c0: cfaa 45be caa1 63be 272d 083e 1fa4 163d
000000d0: 9e93 323e 9e17 81be 5d3c a93e 85bf 093d
000000e0: e1d2 07be c783 3dbe bc9a 433d 0d94 463e
000000f0: 2b34 abbc 1775 2d3c adbc 913b 7317 9b3b
00000100: d177 22bb f1c4 a9bc 2ead 593d 01cc 2dbf
00000110: d5b1 313f c938 b7bc c097 25bc 94e3 89bc
00000120: 6673 123b 84f4 09bc 9047 293b 4fb2 033c
00000130: fb1d 56bd 10a1 78ba 3468 8d3e 4096 3cbf
00000140: bc8e 053f 203e 58bb 0b07 b5bc 94fe 983c
00000150: 4adc 47bd 4960 143e 551a f3bc e0a5 9fba
00000160: c55a 2bbf fb55 49bc 26e1 e4bc 24e9 293f
00000170: 1f8d 013c a4c1 953d 46f1 23be 4a99 4f3d

mcfe_g.multi_core_g2.conv43_interpolation_head.layers.0.bias f4 [8]
1.8779817 -0.7571222 0.8058213 -1.7087233 1.9392458 0.54803485 -1.8287176 1.0886432
00000000: b461 f03f c3d2 41bf 4e4a 4e3f 72b7 dabf
00000010: 3539 f83f 034c 0c3f 6b13 eabf a958 8b3f

mcfe_g.multi_core_g2.conv43_interpolation_body.layers.0.weight f4 [1, 8, 3, 3]
-0.038322385 -0.097286485 -0.02779455 -0.10855716 -0.19947173 -0.09581375 -0.09672061 -0.00340076
0.16374998 -0.0057116873 0.046620592 -0.03929635 0.074743494 -0.0356035 -0.02353975 0.046339527
0.3824653 0.118533835 0.016717216 0.042591885 0.020455943 0.09453111 0.12965928 0.09024049
0.035461877 0.023554714 0.027850354 -0.010840239 -0.010186729 0.060180884 -0.053299226 -0.27398
-0.03805126 0.009328251 0.035140987 -0.009082598 0.028660052 -0.07944849 0.07332635 -0.07805076
-0.16964264 -0.09001955 -0.024132488 0.026503913 -0.012647458 -0.104941964 -0.36043257 0.11183708
-0.04742721 -0.19774729 0.17718895 -0.087529324 -0.050824855 0.034213345 -0.004566262 0.07242438
-0.11171216 -0.059500653 -0.15758908 -0.28871042 0.04539105 -0.058308057 -0.051412337 0.021501396
0.0073580937 0.1709492 0.11519142 0.42264467 0.16622475 -0.07371411 0.06265078 0.13353187
00000000: eff7 1cbd 233e c7bd 65b1 e3bc 3753 debd
00000010: 5142 4cbe 003a c4bd 7515 c6bd 49df 5ebb
00000020: 13ae 273e 1b29 bbbb 3cf5 3e3d 36f5 20bd
00000030: 1e13 993d fad4 11bd 6fd6 c0bc 84ce 3d3d
00000040: 7ed2 c33e dec1 f23d 8bf2 883c d474 2e3d
00000050: 3993 a73c 8799 c13d 67c5 043e 02d0 b83d
00000060: 7940 113d d1f5 c03c 6d26 e43c 429b 31bc
00000070: 3de6 26bc 3b80 763d 4a50 5abd 1b47 8cbe
00000080: a3db 1bbd 85d5 183c ffef 0f3d 2dcf 14bc
00000090: 7cc8 ea3c e4b5 a2bd 202c 963d 14d9 9fbd
000000a0: cdb6 2dbe 2b5c b8bd 7fb1 c5bc bc1e d93c
000000b0: 4937 4fbc d0eb d6bd 9e8a b8be d70a e53d
000000c0: 0943 42bd 447e 4abe 0571 353e 9342 b3bd
000000d0: b92d 50bd 4b23 0c3d 95a0 95bb 3c53 943d
000000e0: 58c9 e4bd f5b6 73bd 085f 21be dad1 93be
000000f0: f7eb 393d 6ed4 6ebd be95 52bd b223 b03c
00000100: 2a1c f13b 4f0d 2f3e 7be9 eb3d e264 d83e
00000110: d236 2a3e 6cf7 96bd 0d4f 803d 94bc 083e
