code/experiments/LIDN-basic/model/model_best.pth (torch, 101471 bytes, 59 tensors)

mcfe_r.conv34_interpolation_head.layers.0.weight f4 [8, 1, 3, 4]
000000 ff 53 05 3e 04 f0 83 bd 3f d9 2f 3b d8 2e b6 bc
       0.13020323 -0.06442264 0.002683237 -0.022239134
000010 21 d8 1c bf 90 9f 45 3e 7b 12 f6 3d e4 00 b9 3c
       -0.61267287 0.1929915 0.120152436 0.022583432
000020 4b 92 13 3e d4 21 6e 3e 97 e6 c1 bd 89 31 3d bd
       0.14411275 0.23255092 -0.0946781 -0.04618982
000030 47 67 c5 bb 8e 6e e8 3b 09 aa 69 3c 12 9d 75 bc
       -0.0060242745 0.0070932573 0.014261731 -0.014991062
000040 70 8e 2a bd ac 2a bd 3c ea dc 9b 3e 30 3e 2d bc
       -0.041639745 0.023091637 0.30441982 -0.010573909
000050 7e 80 c6 3b 64 a7 4e 3d 1f 6e 1c 3c 7d 1d 3f bc
       0.006057798 0.050452605 0.009547739 -0.011664745
000060 e7 c5 e2 3c 10 5a 01 3e 53 96 88 3e fb 5d 90 3c
       0.027682258 0.12632012 0.26677188 0.017622938
000070 ce 36 5a bc 84 42 39 bf f7 87 80 3e 38 df 12 3d
       -0.0133187305 -0.7236712 0.25103733 0.03585741
000080 36 3f ee bc a0 9b b3 bb c3 0b 0e 3d 3c b9 12 bc
       -0.029082876 -0.0054811984 0.034679186 -0.008955296
000090 d2 6e ac 3d 1e 3d d4 bd 63 39 56 bd 4f 6c ed bb
       0.08419575 -0.1036322 -0.052300822 -0.0072455774
0000a0 71 0e 90 3e c1 d3 12 3c ca d5 04 be c8 ee 9e 3b
       0.28136018 0.008961619 -0.12972179 0.0048502423
0000b0 6d 31 95 bb ee 22 6e 3d e1 de c6 bd 49 56 48 ba
       -0.004553011 0.05813878 -0.097104795 -0.0007642252
0000c0 a8 c3 4b bc be 2b 67 3d ad 3c 17 bf ea 77 8e 3c
       -0.012436785 0.0564382 -0.5907696 0.017391164
0000d0 ea b3 4a bb 8d 40 a9 bd 51 04 22 3f 7a b6 88 bb
       -0.003092999 -0.08264265 0.63287836 -0.0041721435
0000e0 41 69 1b 3c 2b f8 8f 3c e7 fb 12 bd 1c e5 a6 bb
       0.009485544 0.01757439 -0.035884764 -0.00509323
0000f0 92 32 1b be a1 1e 05 3d 51 44 82 3e 1b d9 dd bc
       -0.1515601 0.032499913 0.25442746 -0.027081063
000100 28 7b 6f be 63 99 f0 bc 62 9d 00 3f 10 f7 d1 3d
       -0.23386824 -0.029370015 0.5024015 0.102522016
000110 d1 a6 a7 bd 42 d4 61 be ad 41 d3 bb 49 47 c7 bd
       -0.081861146 -0.22053626 -0.006447038 -0.097303934
000120 06 d4 5f bc 6b df 0c 3d bf ce 3d bb 11 3f 37 bb
       -0.01366139 0.034392755 -0.0028962342 -0.0027961174
000130 ac a1 7e 3c 79 f9 99 3e 57 27 b3 bd f7 b3 3c 3d
       0.015541475 0.30073145 -0.08747738 0.046070065
000140 c3 3e fd 3c 9e 71 a7 bd 59 a1 5d be 2a 23 b0 bc
       0.030913716 -0.08175968 -0.2164358 -0.021501143
000150 48 5e e0 bd 22 74 7c be 91 a5 f2 c1 9a 29 c4 c1
       -0.10955483 -0.24653676 -30.330843 -24.520313
000160 c6 c9 23 bc 8c 5d 6b 3e 82 1f c1 c1 0c 6c f3 c1
       -0.009996837 0.22984904 -24.140385 -30.427757
000170 98 43 ef ba 5f 95 de 3d a6 4b de c1 f6 78 e4 c1
       -0.0018254397 0.10868334 -27.786938 -28.559063

mcfe_r.conv34_interpolation_head.layers.0.bias f4 [8]
000000 84 4b cc bf 53 64 0d bf 3c 0b 50 40 35 86 f8 bf
       -1.5960546 -0.5523121 3.2506857 -1.9415957
000010 56 cf 29 bf 03 2b cf 3f 8f b8 b7 40 28 41 c3 bf
       -0.66331995 1.6185001 5.741279 -1.5254259

mcfe_r.conv34_interpolation_body.layers.0.weight f4 [1, 8, 3, 3]
000000 cb c4 88 3c 34 34 53 3d 41 8a 2a 3d 08 41 4b 3d
       0.0166954 0.051563457 0.041635755 0.049622566
000010 54 92 e6 3d 9c 59 bc 3d 26 af 18 3d 7c f9 38 3d
       0.112583786 0.09196779 0.03727641 0.0451598
000020 c0 5a 3c bb cf 54 53 3e 8a 3b 18 3e b1 61 ca 3b
       -0.0028740615 0.2063782 0.14866462 0.0061761965
000030 74 23 f2 bb 84 24 92 3e 35 11 ce bd 0e 08 8d be
       -0.0073894802 0.28543484 -0.10061876 -0.27545208
000040 30 17 4b be 47 48 87 bd 94 e3 23 bc 16 b8 94 3c
       -0.19833064 -0.06605583 -0.010002989 0.018154185
000050 4d d4 89 3b f9 61 00 3d 1c 16 6d bd 81 c2 25 be
       0.0042062164 0.031343434 -0.057882413 -0.16187479
000060 dd 9c ac 3d 61 34 4e 3e 67 b2 e5 bd cc e3 9e b9
       0.08428357 0.20137168 -0.11215668 -0.0003030583
000070 27 3f 97 3c 88 86 15 bd f6 22 35 3d af dc 36 3e
       0.01846273 -0.036505252 0.044222794 0.17857622
000080 85 a4 6d be 19 ae 97 ba 1a 61 26 bc 6f c0 27 bd
       -0.2320729 -0.0011572271 -0.010154987 -0.040955003
000090 74 1f c0 3a ea 0d 98 3c 5c 8c 0b b9 ea c1 63 3d
       0.0014657811 0.018561322 -0.00013308361 0.055604853
0000a0 95 a6 01 3e 01 e5 0c 3d 73 30 00 3e da b2 c8 3e
       0.12661202 0.034398083 0.12518482 0.39198953
0000b0 60 ff 95 3d 27 f5 a8 bb 0e 6d fd 3b b0 fc 05 3c
       0.073240995 -0.0051561776 0.0077339476 0.008177921
0000c0 4c 3a 6a bd e3 1f f0 bd c2 8b a2 3d a1 ae 48 bc
       -0.057184502 -0.11724832 0.07936813 -0.012248666
0000d0 09 7f c1 bd fe d9 3d 3d 20 aa fd bc 3d bb 1b bd
       -0.09448058 0.04635047 -0.030964911 -0.03802036
0000e0 e1 d4 dc bc 1f 44 77 be f2 70 7e 3e ce a1 ec 3b
       -0.026956977 -0.2414708 0.24847773 0.007221437
0000f0 ac 81 57 bd 2f 1d 1b bd 82 9c 67 bc 49 2e 9d 3d
       -0.0526139 -0.03786963 -0.014136435 0.07674844
000100 a4 d0 b7 3d fb 96 47 bd de 9e e9 3d 61 db e4 3e
       0.08975342 -0.04872797 0.11407255 0.44698623
000110 13 df b6 3c a1 d1 66 3d b2 f8 17 3f 95 8b 07 be
       0.022323167 0.05635226 0.59363854 -0.1323684

mcfe_r.conv43_interpolation_head.layers.0.weight f4 [8, 1, 4, 3]
000000 6a 96 9e bc 27 b2 aa 3c 4b a3 f6 bc d1 67 8e 3c
       -0.019358832 0.020836903 -0.030107161 0.017383488
000010 99 85 34 3e e7 29 35 be 7d 73 1a 3c 4f 9c bd 3e
       0.17629088 -0.17691766 0.009426949 0.37033316
000020 69 66 73 3e 25 0f c6 bc 90 0d 15 bf 6f 8e ac bc
       0.23769535 -0.024177143 -0.5822382 -0.021064011
000030 1f dd 90 bd 02 24 ad 3e fb 70 69 be 4c d3 79 bc
       -0.070734255 0.33816534 -0.22797005 -0.015248131
000040 72 7a f5 3d 2a 2e 8f 3e 07 94 86 bd 30 f1 53 be
       0.11986245 0.27964908 -0.06571203 -0.20697474
000050 dc d5 c5 bd b8 c3 12 3c b4 95 97 bc 2c 9e 60 bc
       -0.09659931 0.008957796 -0.018504001 -0.013709586
000060 34 91 4e bd ec e3 54 3d 36 13 52 3c e2 b8 a6 3e
       -0.050431445 0.051975176 0.012821963 0.3256293
000070 2c 4f 52 3e 3a 96 0e bf 5d ab 7c be 69 92 7c 3e
       0.20538014 -0.5569798 -0.24674745 0.24665226
000080 90 cd a8 3c 51 b0 d6 bd 13 9a 03 3e fb e7 26 bd
       0.020605832 -0.104828484 0.12851743 -0.040748578
000090 34 ab a9 bd 8b ee 23 3e 96 85 32 3e 8a 18 7b 3e
       -0.082846075 0.16008966 0.17433771 0.2452108
0000a0 2c f5 13 bf 45 3c 6a 3d b1 d4 09 3e 6b de 17 3b
       -0.5779598 0.057186384 0.13460042 0.0023173343
0000b0 ad b5 1b 3d 8a 65 bc 3a 33 b2 cc 3d 8b b4 54 3d
       0.038015056 0.0014373523 0.09994926 0.05192999
0000c0 a4 26 c6 bc ff 8d 0f 3d 96 43 af 3a 12 7f ad 3c
       -0.024188347 0.035047527 0.0013371583 0.021178756
0000d0 aa 20 7d 3e 32 27 6f 3c 6a f2 d2 3c 37 6f 64 3e
       0.24719492 0.014596747 0.025750358 0.2230805
0000e0 5d 3d cb bd 29 8f 1f 3d 3e e1 42 3d 4f 05 4f 3d
       -0.099238135 0.038954888 0.04757809 0.050542172
0000f0 99 56 14 3d e2 5d 87 3c 17 47 ca 3b e3 50 9a 3d
       0.0362154 0.016524259 0.0061730254 0.07534959
000100 60 45 c9 bd 41 7a ed 3d d4 96 ce 3d 3d 53 03 bf
       -0.09827685 0.11595584 0.10087362 -0.51298887
000110 2b 70 08 3e bb 08 1e 3d 2d 5b 1f 3c 90 09 36 3d
       0.13324039 0.038582545 0.009726328 0.044442713
000120 3b 9b 9f bd 1a cc 93 3e 06 20 f4 bc 4c 91 0d bf
       -0.0779328 0.28866655 -0.029800426 -0.5529983
000130 8c 3a d5 3e 7b 81 55 bb d8 92 ba bd 5e 1a ab 3c
       0.4164623 -0.0032578397 -0.091100395 0.020886596
000140 cf 34 6e 3c 07 27 2e 3b bb 91 64 bc 21 67 b8 3c
       0.014538958 0.0026573555 -0.0139507605 0.022510113
000150 bb bc e6 3c d2 14 76 bd 8a ae 04 ba a2 eb 72 3d
       0.028166166 -0.06007845 -0.0005061409 0.05930675
000160 f4 03 e7 be 39 a3 d5 3e f5 74 b3 bd d9 fe e7 3e
       -0.45120203 0.41726092 -0.08762542 0.4531162
000170 f5 7c d3 be db 21 09 bd b4 f9 7e 3d 67 a9 ea bb
       -0.41306272 -0.033479553 0.062249854 -0.0071613076

mcfe_r.conv43_interpolation_head.layers.0.bias f4 [8]
000000 a6 69 22 40 36 7e de c0 00 08 9e 3f 41 56 bf 3f
       2.5376983 -6.9529066 1.2346191 1.4948198
000010 7b 01 b1 c0 a7 ec a0 40 44 a5 10 3f 04 5b e2 3f
       -5.5314307 5.028888 0.56502175 1.7684026

mcfe_r.conv43_interpolation_body.layers.0.weight f4 [1, 8, 3, 3]
000000 0e 7d 3d 3d e8 22 9c be 7b d7 36 3e 09 0f c4 bd
       0.04626184 -0.3049538 0.17855637 -0.0957318
000010 4d 9f 18 be d7 52 b4 bd c4 5f 90 bb 15 64 a1 bc
       -0.14904518 -0.08804863 -0.0044059474 -0.019701043
000020 92 a6 a1 bb 96 e1 8d bd f5 6c dc bd 70 96 a1 bd
       -0.004933187 -0.06927793 -0.107629694 -0.07890022
000030 d4 74 9e bd 53 01 5f 3b 5b b5 3e be a4 4b 21 3e
       -0.07737127 0.003402789 -0.18623869 0.15751511
000040 fb 55 81 3e 2d 72 79 3d 9f 7f 48 bd e9 5e 10 bc
       0.2526091 0.060899902 -0.048949834 -0.008811691
000050 3c f9 08 bb 5e c7 ba bd 76 47 2b be fc e2 81 bd
       -0.0020900508 -0.091200575 -0.16726479 -0.06342122
000060 3c ee 62 bc bb 10 1f bd 81 3e 87 bb 84 c4 ee 3c
       -0.013850745 -0.038834315 -0.004127324 0.02914644
000070 f5 e7 c3 bc f1 24 1a bd 21 f3 b9 bc b0 90 4e be
       -0.023914317 -0.037632886 -0.02269894 -0.20172381
000080 0d db a7 bc de 78 e5 3c d5 6e 86 3d e6 58 47 bc
       -0.020490194 0.028011736 0.06564108 -0.012167191
000090 41 3d f9 bd ea f7 24 3e a9 a7 1d 3e 7e b9 e7 bc
       -0.121698864 0.16110197 0.15395989 -0.028286692
0000a0 86 44 52 3e 40 59 ba bc 5e 3f 1f be 1e 9f 0b 3d
       0.20533952 -0.022747636 -0.15551516 0.034087293
0000b0 75 37 fb bc 9a d3 b2 bd 85 9c 4c 3e c0 17 57 3b
       -0.030666092 -0.08731766 0.19981582 0.0032820553
0000c0 e6 6b e6 bc 3d bf 83 3e d6 5e 00 be 7d 2e ec 39
       -0.028127622 0.2573184 -0.12536177 0.00045048064
0000d0 a3 ce f0 bb a9 ce 8f bc 3d 27 bd 3c 01 e8 06 bc
       -0.0073488518 -0.017554598 0.02309 -0.008234025
0000e0 1d 4c 1e bc 51 ec d4 bc 16 36 5d be 92 d9 97 be
       -0.0096617015 -0.02599159 -0.21602663 -0.2965818
0000f0 2f 81 27 3c bb 62 c1 bd da 82 d3 bd 35 de 81 bd
       0.010223671 -0.094426595 -0.10327692 -0.06341211
000100 3d c0 7b bb 46 ff 8e 3c 93 4b 8f bd c5 99 55 be
       -0.0038414143 0.017455708 -0.069968365 -0.2085944
000110 80 86 48 bd a8 55 f8 3c 06 74 2b bc f6 76 9a bd
       -0.048956394 0.030314282 -0.010464674 -0.07542221

mcfe_r.conv44_interpolation_head.layers.0.weight f4 [8, 1, 4, 4]
000000 23 f2 4a 3c 47 36 30 3d 18 55 53 bd 89 07 12 3d
       0.012386831 0.043020513 -0.051594824 0.035651717
000010 b6 a3 2b 3d 71 b5 7b 3d 50 80 32 be 35 83 bc be
       0.041904174 0.061452333 -0.1743176 -0.36818853
000020 b8 2d 81 3c 8b f7 5a 3e 2d 20 d9 3e 97 5b 2d bd
       0.01576887 0.21383493 0.4240736 -0.042323675
000030 46 cf 24 be 01 ba 9d be 16 ac 23 3e 87 12 e9 3d
       -0.16094694 -0.30805972 0.15983614 0.11380487
000040 68 d7 36 bd f6 da 81 3c d2 25 3c 3d 0c a6 cf bc
       -0.04463902 0.015851479 0.045934506 -0.025347732
000050 58 d4 7b 3c 7a cd bf 3d 05 0c b3 3d 23 45 3d bd
       0.015370451 0.093653634 0.08742527 -0.046208512
000060 f6 e2 a7 3d 3f 76 6b 3e 9f a3 8e be 88 71 94 bd
       0.08197586 0.22994326 -0.27859208 -0.07248217
000070 6b 2e 07 3d 36 6f a9 bd be dc e1 bd e1 9f 55 3d
       0.033003252 -0.08273165 -0.11028431 0.052154426
000080 3a 5e 2a 3c b8 8a 59 3c a7 72 76 bc 9e 39 c6 bc
       0.010398442 0.013277702 -0.015041984 -0.024197396
000090 68 d9 2e 3d 65 02 6d 3e fb bc 03 3e 47 68 c3 3c
       0.042687804 0.23145445 0.12865059 0.023853434
0000a0 74 c2 84 bd d1 22 6c 3e e6 59 aa be a2 86 d9 bd
       -0.064824015 0.23060156 -0.33271712 -0.10621382
0000b0 f3 1e 87 3c 06 e4 bf bc 35 31 48 bd d6 db 4f bc
       0.01649425 -0.02342416 -0.048875052 -0.01268669
0000c0 75 a0 97 bd 49 38 ad bd 57 95 28 3e 41 f9 8b 39
       -0.074036516 -0.08458001 0.16463219 0.00026697855
0000d0 5f af c2 3d a0 c6 e0 3e e3 5c 01 3f fa e7 19 be
       0.09506106 0.4390154 0.5053236 -0.15029898
0000e0 b6 c3 42 bc 24 82 a7 3d 62 87 c3 be 3d ab 14 bf
       -0.011887481 0.08179119 -0.38189226 -0.5807379
0000f0 17 aa 86 bc 01 7f 3e 3d 37 68 80 bd a4 e3 4d 3c
       -0.016438527 0.04650784 -0.062698774 0.012566481
000100 c7 8a a0 3e 02 3e ff 39 a8 b1 c1 bd 61 d9 27 3c
       0.3135588 0.0004868359 -0.09457713 0.010244698
000110 92 2a 6d 3e 19 75 f8 be 1a 17 ea bd e5 48 99 bd
       0.2316077 -0.48526838 -0.114301875 -0.07484607
000120 14 d0 05 be 78 7f 81 be 2d 21 e3 3e 40 a6 d7 3d
       -0.13067657 -0.25292563 0.4436125 0.105297565
000130 db 27 ef bd dc 23 a8 3d 51 30 15 3e 16 d8 9d bd
       -0.11677524 0.08209965 0.14569212 -0.07707231
000140 3f 42 a3 3d 2f 47 cb 3a 84 d1 d7 bc 2d f9 37 3a
       0.0797162 0.0015508885 -0.026345022 0.0007018026
000150 9e 66 cc 3d 8d e8 14 3d 1e e5 d6 ba 96 be 3c bb
       0.0998051 0.03635459 -0.0016395187 -0.0028800122
000160 b6 ed be be 9c c5 de 3e e0 d5 be bb d3 6c 46 3c
       -0.37290734 0.4351014 -0.0058238357 0.012110907
000170 f2 a8 31 bd 5e 50 c2 bd 39 30 61 bc 33 3a e4 bb
       -0.04337401 -0.09487985 -0.013744407 -0.0069649457
000180 04 96 df 3c 56 1a 20 3e 67 b8 37 3c 27 97 4a bd
       0.027293213 0.15635046 0.011213399 -0.049460556
000190 7b 1f b6 3e 19 a4 e8 3c 64 18 77 be 69 08 70 bd
       0.35570893 0.02839856 -0.24130398 -0.05860177
0001a0 44 2e 68 3e ac cc 01 bf 3b 73 34 3d 23 cd 83 3d
       0.22673899 -0.5070293 0.044055205 0.06435611
0001b0 d6 dd fb bd be c4 bd bd a0 c1 63 3e 5d ab bb 3d
       -0.12298171 -0.09266041 0.22241831 0.09163544
0001c0 8b 20 64 bc f7 40 4e 3a 67 d9 8b 3c aa dd d6 39
       -0.0139237745 0.0007867957 0.017071439 0.00040982413
0001d0 f9 cd 8c 3d 49 79 2c 3e b6 d9 ad 3c 0e 9d 1e bd
       0.06875224 0.16843142 0.021221977 -0.038723998
0001e0 1a 2a 1d 3e e8 1c a8 3e 82 86 c5 bb 09 d2 20 3c
       0.15348092 0.32834554 -0.0060279975 0.009815701
0001f0 78 0f 1e 3c 88 8a 03 be 13 bf 9c bd e0 57 b0 bc
       0.009647243 -0.12845814 -0.07653632 -0.021526277

mcfe_r.conv44_interpolation_head.layers.0.bias f4 [8]
000000 a3 ae b5 c0 05 19 53 c1 26 ec b2 40 c4 43 67 40
       -5.677568 -13.193608 5.5913267 3.613511
000010 77 51 5f 3d 69 70 2d 41 fe d5 8a 40 d5 71 be bf
       0.05452105 10.839944 4.338622 -1.4878489

mcfe_r.conv44_interpolation_body.layers.0.weight f4 [1, 8, 3, 3]
000000 6d d8 bb bd 7d a8 e0 bd e9 99 03 bd 66 32 cb bd
       -0.09172139 -0.109696366 -0.032129202 -0.09921722
000010 dd a0 d9 bd 73 de 4a bd c0 ef fe bc b0 26 43 bd
       -0.10626385 -0.04952855 -0.031120181 -0.047644317
000020 3d ab 46 bd a0 6e 28 3e c9 0d 8b 3e e6 69 0c bd
       -0.04850315 0.1644845 0.27158955 -0.03428068
000030 43 4d 1c 3e 79 20 d8 be 76 2f a6 bd 8c 9e 1f 3d
       0.15263848 -0.42212275 -0.08114521 0.03896956
000040 1e 87 b0 3c 38 fc cb bb d0 e6 61 bd 96 09 2f bd
       0.021548804 -0.006225135 -0.05515176 -0.04273375
000050 6d 7f 53 bd 37 8b 5a 3b e1 4e 99 3e 49 f9 4a be
       -0.051635195 0.0033347139 0.29942992 -0.19821657
000060 08 99 07 be 3f ac 46 bd 14 78 4a 3c 4e c5 60 3c
       -0.1324197 -0.04850411 0.01235773 0.013718916
000070 66 41 20 3d 75 57 d6 3c 6f 02 69 3d 5e ed 45 3d
       0.03912487 0.02616475 0.056887086 0.048322074
000080 de a6 6e 3d 51 2a b3 3d 44 e8 84 3d 50 2c b9 3c
       0.058264606 0.087483056 0.06489614 0.022604138
000090 b7 8f 3e bb 98 7e 1d 3d 65 48 4c 3d 88 88 37 3c
       -0.002907736 0.038450807 0.04987373 0.011201985
0000a0 29 36 a8 3d 2f b7 e9 3d 0e f1 7d 3d f8 58 0b 3e
       0.08213455 0.114118926 0.061997466 0.13608158
0000b0 95 30 f6 3c 02 6c 9b 3b 8b 27 24 bd 38 40 59 be
       0.030052463 0.0047431 -0.040076774 -0.21215904
0000c0 1c c7 db bb 29 36 fb bd cb c7 f5 3e 16 26 a3 3c
       -0.0067070853 -0.122661896 0.48003992 0.019915622
0000d0 07 6b 63 3d 6a 9d f3 bb df 46 40 3d 30 98 b1 3d
       0.05552199 -0.0074345367 0.046942588 0.086716056
0000e0 c7 e0 18 bd 0d 0a ce bc 83 66 e4 bd c7 af 96 3d
       -0.03732374 -0.025151277 -0.11152365 0.073577456
0000f0 79 20 69 bc 61 8a 90 3d 2b a0 86 3d b7 fa 8e bd
       -0.0142289335 0.07057644 0.06573518 -0.06981414
000100 1e 85 d1 3c 96 b5 f1 3d de 86 d9 3c d7 03 91 bd
       0.02557617 0.11802213 0.026553567 -0.070808105
000110 10 5a b3 be 76 b2 e3 bc 16 cb a1 3c 8e cc 02 3e
       -0.3502965 -0.027795058 0.01975016 0.12773344

mcfe_b.conv34_interpolation_head.layers.0.weight f4 [8, 1, 3, 4]
000000 79 57 a7 3b f8 6e 28 be 6a 81 82 3d a0 37 96 3d
       0.005106863 -0.16448581 0.0637234 0.073348284
000010 e9 98 a3 bd 92 eb 68 be 26 96 e2 3d 40 9c 17 3e
       -0.0798815 -0.22746113 0.11063795 0.14805698
000020 45 04 c3 ba d0 6e aa bd b8 55 06 3e dd d6 03 3d
       -0.0014878592 -0.08321917 0.13118637 0.03218733
000030 6a 4c c2 be 3c 83 f3 3b bc 38 3e 3e 3d 44 a9 3d
       -0.37948924 0.007431416 0.1857633 0.082649685
000040 11 5b cc be 3b 6b ca 3e 03 05 39 3e fa 48 9f bd
       -0.39913228 0.39534935 0.18068318 -0.07777591
000050 64 ff 40 bd 3f b6 77 3e 97 42 13 be 39 a9 19 bd
       -0.04711856 0.24190615 -0.14380871 -0.0375149
000060 24 5c 4f bc 58 a2 84 3c 8d 57 55 3d 63 eb 33 bd
       -0.012656245 0.016190693 0.052085448 -0.043925654
000070 d7 f0 94 3c 0c e0 5b bc 40 08 02 3f 64 71 2d be
       0.018181248 -0.013420116 0.5079384 -0.16937786
000080 d1 b3 b6 3b c6 65 cc bb 20 24 aa 3b a6 a7 cb bd
       0.005575635 -0.0062377183 0.0051922947 -0.09944086
000090 e8 54 97 3c 3b 3a dd bd 3a 0c 90 bd f3 2a 5a 3d
       0.018473104 -0.10802122 -0.07033582 0.053263616
0000a0 5f 98 02 3d 95 f5 ad 3e 11 b2 4e be 09 f8 ee bc
       0.031883594 0.33976427 -0.20185114 -0.029171007
0000b0 76 15 a9 bd 84 6d b5 3c 48 cb ee 3d 94 b3 39 bd
       -0.082560465 0.022146948 0.116598666 -0.045337275
0000c0 ea eb 95 3b e6 05 bd 3d 70 31 d0 bc 7d 74 95 bd
       0.0045752423 0.09229641 -0.025414199 -0.07297609
0000d0 70 25 9a 3c 2d 47 01 3e 1e 4e d6 3e e9 5d da 3c
       0.01881668 0.12624808 0.41856474 0.026656108
0000e0 6d f8 05 3c c8 30 a2 bd 9e 20 3a bd 9e 42 a2 3e
       0.008176905 -0.079194605 -0.045441262 0.3169145
0000f0 74 00 fd bc b9 1b 39 3e 4a 1a 6a 3e 55 4d 1c 3d
       -0.030884005 0.18076982 0.22861591 0.038159687
000100 7e 1c d0 b9 7d 01 9d bd d3 ac 5b 3c bd 38 8d bb
       -0.0003969408 -0.076662995 0.013407904 -0.0043097422
000110 b4 4c 4f 3c 25 17 63 bd 89 33 00 bc ec 82 8a bb
       0.012652565 -0.055441994 -0.007824787 -0.004227033
000120 31 4b 9d bd e3 7a c5 bd 1e c5 9b 3c 38 bc 23 3e
       -0.07680357 -0.096425794 0.019014891 0.15989769
000130 e1 a8 53 3d fe 47 25 be 85 f2 8e be 04 7b c3 bd
       0.051674727 -0.16140744 -0.27919403 -0.09544948
000140 c6 13 0a 3e 6d 61 89 3e df df df 3d 86 9b 6e bd
       0.13484105 0.26832142 0.10931372 -0.058253787
000150 39 cb e2 bc 05 ce 93 3e 9e 03 e3 bd ec 81 8a bc
       -0.027684795 0.28868118 -0.11084674 -0.016907655
000160 db 5d bf 3d 52 42 99 bb 15 73 2a be 11 58 ae 38
       0.093440734 -0.0046770955 -0.16645463 8.31337e-05
000170 f7 49 47 3c 11 e8 82 bd 90 b2 35 bd ca 62 0f 3d
       0.012163631 -0.063919194 -0.044359744 0.035006322

mcfe_b.conv34_interpolation_head.layers.0.bias f4 [8]
000000 6b 97 f4 c0 5e 75 86 40 af 8b 03 c0 f7 93 cd 40
       -7.6434836 4.201827 -2.0554006 6.424312
000010 8c dc 49 41 c6 9f c0 c0 f2 2b cd 40 17 3d d8 40
       12.616344 -6.0195036 6.4116144 6.7574573

mcfe_b.conv34_interpolation_body.layers.0.weight f4 [1, 8, 3, 3]
000000 11 34 8c 3e 05 16 97 3d c6 4c 4a bd 3c 84 37 3e
       0.27383474 0.07377247 -0.049389623 0.17921537
000010 7d 77 15 be 74 2e 63 be fe 8c d8 3c fc 32 2d bd
       -0.14596362 -0.22185689 0.026434418 -0.04228495
000020 da 75 85 bc 3a fd c5 b9 bf 1d c9 bd 3f 13 bd bd
       -0.016291548 -0.00037763437 -0.09820127 -0.092321865
000030 e9 7d a6 bc 88 c9 13 be fd 92 16 bd 4e 4c 8a bc
       -0.02032371 -0.14432347 -0.036761273 -0.016882088
000040 06 43 25 bd 17 7d 23 bc 3e 52 43 be db 46 84 3d
       -0.04034712 -0.009978554 -0.19074342 0.06458827
000050 86 87 2c bc 4a 65 94 be 6d f9 aa 3e 74 31 94 3d
       -0.010530358 -0.28983527 0.33393422 0.07235995
000060 59 75 7e ba 32 4e df bc 12 d1 11 bc 96 86 4b 3d
       -0.0009706817 -0.027258966 -0.008899944 0.049688898
000070 c8 77 2d be 5f 92 2a 3e c6 59 1d bd dd d0 a1 3e
       -0.16940224 0.16657399 -0.038415693 0.31604663
000080 fe c7 41 3d c9 61 83 ba d9 dc 76 3c 8d b1 e6 3c
       0.047309868 -0.0010023649 0.015067303 0.028160835
000090 39 e7 ce 3e 89 60 a1 be fa 70 a5 3d e5 c2 8a be
       0.40410784 -0.31518963 0.08078189 -0.27101818
0000a0 10 11 35 3d df 3c 9f 3d 6c f5 35 bd d8 49 a8 3c
       0.044205725 0.07775282 -0.044423506 0.020543024
0000b0 e7 9e 61 3c 75 c7 2f ba 9b fe 00 bd bb c4 48 3d
       0.013770795 -0.00067054416 -0.03149281 0.04901574
0000c0 de 3a 00 be 80 25 bd be d7 8c b1 3d 34 62 ef 3c
       -0.12522456 -0.36942673 0.08669441 0.029221632
0000d0 1f 42 4d 3e c4 a4 86 3d 76 2b f1 3d 9d 6a aa 3d
       0.20044754 0.06574395 0.11775868 0.08321116
0000e0 6c b8 c3 3d 96 da 0d 3c 6f df fd 3d 10 90 03 3e
       0.0955666 0.008658072 0.12396132 0.12847924
0000f0 3c 96 92 bc 10 6b 38 3d 25 60 3d 3d d8 41 ad bd
       -0.017893903 0.045023978 0.04623427 -0.08459824
000100 87 2a fc 3c 28 64 99 b9 bd 2d 78 bd b9 c1 05 3e
       0.030781997 -0.00029257056 -0.060590494 0.1306218
000110 6e 6a be be 6d da 0a bc 25 ee 22 be d6 3b 6d bd
       -0.37190574 -0.008474928 -0.15911157 -0.057918392

mcfe_b.conv43_interpolation_body.layers.0.weight f4 [8, 1, 4, 3]
000000 5b 85 97 3c 4c ec b3 bc 81 a5 56 3a 05 bc 0c bc
       0.018496206 -0.021963261 0.0008188114 -0.008589749
000010 51 0d fa be 9d ad f6 3e 2f 8b 41 3d 27 d4 a6 3e
       -0.48838285 0.4817933 0.047251876 0.32583734
000020 7e d4 b2 be 80 19 12 bd 6a ba 18 3d 59 61 53 bc
       -0.34927744 -0.03566885 0.037287153 -0.012901627
000030 1b 7f 79 3d cc 69 1c be da 7c 5a bb 66 0f c9 bd
       0.060912233 -0.15274733 -0.0033338577 -0.0981739
000040 77 07 d1 bc 76 de 8e 3c 47 65 c6 3e 79 c3 3a 3d
       -0.025516255 0.017440062 0.38749143 0.045596574
000050 22 1f 71 be 67 30 1a bf c8 c5 b9 3e 18 40 18 bc
       -0.23547032 -0.60230106 0.36283708 -0.009292625
000060 a5 44 aa bb 08 4f 5e 3c c7 16 44 bc 0b 68 c9 39
       -0.0051961713 0.013568647 -0.011968321 0.00038415226
000070 26 df 09 3c 29 25 a8 3a 5a 8f 9e bd 65 34 6c 3e
       0.008415019 0.0012828457 -0.07742186 0.23066862
000080 d6 3e 5a be 03 5e 8d 3d 40 f3 01 3f f0 1b 08 bf
       -0.21313033 0.06902697 0.50761795 -0.5316763
000090 7b 60 be bb 5f 40 16 ba 1b 8c 83 bb cf 5b 0c 3b
       -0.005809841 -0.0005731638 -0.0040145046 0.0021417027
0000a0 9d 4d d2 3b 49 89 c8 bb c2 22 26 3c dc f8 ff 3e
       0.0064179436 -0.0061198813 0.010140123 0.49994552
0000b0 09 59 18 3d 78 8d b2 bc 26 81 01 bf 97 76 98 bc
       0.037194286 -0.021795973 -0.5058769 -0.018611236
0000c0 81 05 9f bb cc c7 4d bd ce c9 1c bd 3b 0a 26 bd
       -0.004852951 -0.05023937 -0.038278393 -0.0405371
0000d0 86 de c8 3c 63 0a 65 bd 05 8c 8d 3c a0 83 cb 3e
       0.02452017 -0.05591811 0.01727868 0.3974886
0000e0 e0 d2 9f bd 3f 91 0a bd 89 fd 28 bd 3b 54 98 bd
       -0.07803893 -0.033829924 -0.041257415 -0.07437941
0000f0 42 ae e2 3c b2 35 b1 bb 8b da d7 bb 1a a2 5f 3c
       0.027670983 -0.0054080123 -0.0065873316 0.013649488
000100 79 3b 35 3d 29 ae 95 3e b2 85 02 3d c5 81 05 3e
       0.04424617 0.29234436 0.031865783 0.13037784
000110 43 88 2e bf 82 5c 08 3b 14 62 2f 3d c7 33 4e 3d
       -0.6817667 0.0020807092 0.042818144 0.050342347
000120 7b 25 5f 3e b9 9d 3a bf ca 07 8a 3d 22 97 20 3e
       0.21791641 -0.72896916 0.06739767 0.15682653
000130 18 26 fe 3e e7 80 b2 3c d9 fc e6 bd fd b5 39 be
       0.49638438 0.021789981 -0.112786956 -0.1813583
000140 4e 6b 9d 3c 76 8d bf 3d b5 d4 7d bd d4 d4 6d 3b
       0.019216206 0.093531534 -0.06197043 0.0036290186
000150 9f 67 39 3d c5 e6 05 bc cd cd a5 3a 2b a1 dc bc
       0.045264836 -0.0081726955 0.0012649834 -0.02693232
000160 68 55 03 bf 4b 6d 67 bd 2a 7a 65 be 03 89 24 3f
       -0.51302195 -0.056500714 -0.22409883 0.64271563
000170 ec 48 49 3e 57 47 de bc c6 19 ff 3d 00 a6 1a be
       0.19656724 -0.027133627 0.12456088 -0.15102386

mcfe_b.conv43_interpolation_body.layers.0.bias f4 [8]
000000 db 42 0c c0 97 2e 19 3e 2d 7c 09 39 55 23 e5 bf
       -2.1915805 0.14959179 0.00013111597 -1.7901407
000010 6a 68 df c0 c8 8a 1d 40 08 a1 f5 bf 89 60 9d bf
       -6.981496 2.4615955 -1.9189768 -1.2295085

mcfe_b.conv43_interpolation_head.layers.0.weight f4 [1, 8, 3, 3]
000000 3d 29 81 bc 9b 59 cc bd 60 a9 a3 bc ac 89 c1 be
       -0.015766734 -0.099780284 -0.019978225 -0.37800348
000010 27 2a 90 be d5 8b 7f 3b 47 8a 23 bd 3d 63 87 bd
       -0.2815716 0.0038993258 -0.039926793 -0.06610725
000020 ae 9e e3 ba ff ef ae bd 85 33 01 be cd c7 91 3c
       -0.0017366016 -0.08541869 -0.1261731 0.017795468
000030 12 b1 84 bd b1 38 ec bd d8 c9 b8 bd 58 de 2f bd
       -0.06479086 -0.115342505 -0.09022874 -0.042936653
000040 07 04 98 bd 8b 0a 36 bd 3a a9 ae be 4c 0b 7d be
       -0.07422643 -0.04444365 -0.34113485 -0.2471134
000050 6e 8c bf 3c cf fb 78 bc a4 5b 0c 3d d7 53 89 3c
       0.023382392 -0.015196755 0.034267083 0.01676361
000060 49 35 99 bc 4f 57 25 bb 5c 75 08 3c e1 7f 5a be
       -0.018702166 -0.0025229042 0.008328762 -0.21337844
000070 28 00 ee be f4 ce 1a 3e fd 07 5c bd e0 d5 41 be
       -0.46484494 0.15118009 -0.053718556 -0.18929243
000080 e0 1a 07 3e 40 b1 ef 3b 02 a9 66 3c a6 4e a8 3c
       0.13193846 0.007314831 0.014078381 0.020545315
000090 76 57 4c 3c 74 03 92 3e 7b 11 ca bc 92 31 a8 3d
       0.012472024 0.2851826 -0.024666538 0.0821258
0000a0 5f 48 c7 3e ea 14 56 bc 32 aa 09 be ad 1d 01 bd
       0.38922402 -0.01306651 -0.1344383 -0.03152244
0000b0 79 40 95 bc 93 51 28 3d 90 24 18 3d ae 40 71 bd
       -0.01821922 0.04109342 0.037144244 -0.058899574
0000c0 33 d5 c8 3e 99 60 07 bd 85 d5 93 bd b0 6d 28 3d
       0.39225158 -0.033051107 -0.0721846 0.04112023
0000d0 20 64 c5 bd 93 6e 42 bc b5 09 1f bc 24 3d e7 bc
       -0.09638238 -0.011867183 -0.009706904 -0.028227396
0000e0 ee 8b c4 bc a6 4d a0 bd ab 06 4e bd f3 60 92 bd
       -0.023992505 -0.0782731 -0.050299328 -0.07147398
0000f0 a0 af 61 bd f1 da 3a bd f4 d8 9d bd 27 65 84 3c
       -0.05509913 -0.045618955 -0.07707396 0.016161514
000100 a8 53 67 bb f5 2c 15 bd 73 4a 82 3c f3 fb ad be
       -0.0035297666 -0.036419827 0.01590464 -0.33981284
000110 2e 02 ba bd c5 45 8a bd 21 b8 aa bd b1 8c 55 bd
       -0.09082447 -0.06751589 -0.08335901 -0.052136127

mcfe_b.conv44_interpolation_body.layers.0.weight f4 [8, 1, 4, 4]
000000 33 e0 74 3c 36 b4 3b 3c 6d 99 0b bd 98 f8 be bc
       0.014946031 0.01145654 -0.034081865 -0.023311898
000010 2b 23 28 bd f4 82 0e bd 2d 1e 14 3d 2d a9 7d 3c
       -0.041049164 -0.034792855 0.03616159 0.015482229
000020 e8 83 1c 3d 8c e0 31 be ec 00 02 3f ed a1 5e 3c
       0.038211733 -0.17370814 0.50782657 0.013588411
000030 61 e6 0d bb 28 47 e7 bd 46 8e d1 bc cc b5 50 bd
       -0.002165221 -0.11292869 -0.025580537 -0.050954625
000040 d3 8c 46 3d 16 a1 b4 3c a4 69 2a be 0f 3f 34 bc
       0.048474144 0.022049468 -0.16641861 -0.011001362
000050 fc 45 59 bb f5 fa 55 3e 44 b8 f5 3d f7 41 88 be
       -0.0033153286 0.20896514 0.119980365 -0.26612827
000060 81 ad 6f bd 4e 54 24 3c 5d c0 9a 3e 7e 32 25 bd
       -0.058515076 0.010029865 0.30224887 -0.040331356
000070 3d 85 14 bd 86 8a 6c bd c4 d7 5d 3d 88 55 32 3c
       -0.03625988 -0.057749294 0.05416085 0.01088465
000080 36 95 e4 3c 12 90 4c bd ad a6 92 3c af 57 50 3c
       0.02790318 -0.049942084 0.017901743 0.012716218
000090 50 79 61 bd 7f 2e 12 be e9 a0 4c 3d 68 75 c5 3d
       -0.055047333 -0.1427555 0.049958143 0.09641534
0000a0 d1 c0 69 bd 5c e1 82 be bc 19 23 3e ec 07 50 3e
       -0.05706865 -0.2556256 0.15927786 0.20315522
0000b0 0e c9 ea 3b 14 ca 05 be 6e 62 15 3d cb 09 b5 3d
       0.007165081 -0.13065368 0.036470823 0.088397585
0000c0 a0 f3 06 bd 44 0b 6f b9 a2 81 11 bd 00 17 e7 3b
       -0.032947183 -0.00022797013 -0.035524018 0.0070523024
0000d0 8a 8e f8 3c db 1d 8d bd 2c 33 56 3e 60 1c a0 3d
       0.030341405 -0.0689046 0.20917958 0.07817912
0000e0 a2 f7 79 bc 06 27 1d 3e 83 a7 21 bf 85 75 3c 3e
       -0.015256794 0.15346918 -0.6314623 0.18404205
0000f0 b0 ec 98 bc a2 18 42 3e 02 c7 b1 3e 9b 37 e3 3d
       -0.018667549 0.18954709 0.34722143 0.1109459
000100 fa eb 41 3d 5b 3e 1a 3c 9a e1 1d bd 8d 7d 9b bc
       0.047344185 0.009414281 -0.03854523 -0.018980766
000110 0a d3 2b 3d 72 2f 3a bd a5 24 8e 3e 27 d4 85 bd
       0.04194931 -0.045455404 0.27762333 -0.065346055
000120 cb 55 ad 3c 0c cc f3 3e 38 7b a3 3e 83 c5 a3 3c
       0.021159073 0.47616613 0.31929946 0.019991642
000130 09 3b b9 3d 73 74 18 3e 1e 21 1e bd 8c 55 79 3d
       0.09044463 0.14888172 -0.0386058 0.0608726
000140 38 32 11 3d 8c 77 38 3c bc 56 04 bd c5 55 41 3b
       0.035448283 0.011258971 -0.03230928 0.0029500586
000150 07 06 55 3c 05 ec 7c bd e8 e7 fb bd 74 ef ef b9
       0.013001925 -0.061748523 -0.12300092 -0.0004576404
000160 47 20 bc bd 30 56 80 be 3d 0a 35 3e 81 c4 bc 3d
       -0.09185844 -0.25065756 0.17679687 0.09217168
000170 63 65 c0 bc b1 da 5c 3e f5 22 fc 3d 79 1e 10 bd
       -0.023485845 0.21567799 0.12311355 -0.03518531
000180 1d 70 46 3c e2 ca 9d bd ad 81 f5 bc 4b e3 b4 3d
       0.012111691 -0.077047125 -0.02996906 0.08832415
000190 73 2b b9 3d ee 72 ae bd ef ef 69 be 3c 75 07 3d
       0.090414904 -0.08518015 -0.22845434 0.033070788
0001a0 b6 f5 8e 3d 63 e6 90 3e 12 22 9f be 87 ec 0a be
       0.069804594 0.2830077 -0.3108068 -0.1356679
0001b0 50 7d 6f bd 1e 9f 24 3e c6 48 e4 3d 16 56 3c 3c
       -0.058469117 0.16076323 0.11146693 0.011495134
0001c0 a8 01 a7 bd 07 a7 ad 3d 1d 68 29 3d 5f 98 e8 3b
       -0.08154613 0.084791236 0.041359056 0.007098242
0001d0 e6 0b 0a 3e b4 b0 91 3e 32 fd 74 be 5a 77 80 bd
       0.13481101 0.28455126 -0.23924711 -0.062727645
0001e0 bf c8 d9 3d 0b 28 a3 be 19 a1 0c bd ee 21 f1 3d
       0.106339924 -0.31866488 -0.034333322 0.1177405
0001f0 ba c5 57 bd 5c 42 e9 ba ef 50 08 3e 27 aa 95 3d
       -0.0526788 -0.0017796266 0.13312124 0.073078446

mcfe_b.conv44_interpolation_body.layers.0.bias f4 [8]
000000 85 be 9f 40 48 d3 2b 40 4b 85 f6 40 4a 31 37 40
       4.992007 2.6847706 7.703771 2.8623834
000010 ca 36 28 bf 22 1a 35 41 11 d8 18 c1 91 6f 87 40
       -0.657086 11.31888 -9.552751 4.232369

mcfe_b.conv44_interpolation_head.layers.0.weight f4 [1, 8, 3, 3]
000000 fc 17 df bd 7b 4d b3 3d ef 33 91 3d 05 77 8d be
       -0.108932465 0.087550126 0.07089984 -0.27629867
000010 12 99 2a bc cf 8b c7 3d bd d4 75 3d 69 5e 0f bd
       -0.010412471 0.09743463 0.060017336 -0.035002146
000020 27 e1 75 3b 39 e1 9a bc 66 1f 9b bd c1 b7 1d bd
       0.0037518234 -0.018906223 -0.07574348 -0.03850532
000030 81 e2 ab bc bd db 18 3e 15 b7 80 bd f3 2b 74 be
       -0.020982029 0.14927574 -0.0628492 -0.2384489
000040 1c 6b ce 3d 44 d3 a5 3d ae 1f 42 3d bf 24 98 bd
       0.10079023 0.08096936 0.047393493 -0.07428884
000050 5a 8c 75 bd 72 95 89 3d ed 54 eb bd 7c 1b 1d be
       -0.059948303 0.067179576 -0.11490808 -0.15342516
000060 9d a6 0a bd 2f f3 82 bd 6f 2b a5 3c 05 82 d8 3d
       -0.0338503 -0.0639404 0.020162312 0.10571674
000070 9d 37 5c 3e 93 01 b7 3d 72 1a 50 3e d5 35 21 3e
       0.2150559 0.08935847 0.20322588 0.15743192
000080 5a b1 16 3d a0 55 62 3c 83 78 43 3d 61 a9 90 3b
       0.03679023 0.01381436 0.04772235 0.004414723
000090 28 c8 26 3e 31 53 4d 3d 32 a4 21 be 43 7f 07 bd
       0.16287291 0.050128166 -0.15785292 -0.03308035
0000a0 ae d6 f3 be b5 6e 00 3e b7 3c 5f bd 87 a5 0c 3d
       -0.47624725 0.12542231 -0.05450126 0.034337547
0000b0 b5 ef d7 bc 01 ec 57 3d 53 f2 c7 3e a1 33 a1 bd
       -0.026359418 0.052715305 0.39052066 -0.078711756
0000c0 b3 1b 7b 3d 73 70 87 be 5d 6d a6 bc 19 2c d4 3b
       0.061305713 -0.2645298 -0.02031582 0.0064749834
0000d0 c3 99 63 bd d3 9d 02 3d 0e 92 6c bd 99 5c 85 be
       -0.05556656 0.031888794 -0.057756476 -0.2604721
0000e0 f5 7b fc bd e9 29 97 3d 20 e2 12 3e 3a c9 23 be
       -0.123283304 0.073810406 0.14344072 -0.1599473
0000f0 c4 1e d9 bc a7 17 d6 3d 08 e5 f4 bc 23 05 86 3d
       -0.026503928 0.1045373 -0.029894367 0.065439485
000100 b0 1b e6 3d c3 9d 05 bc 92 c5 93 3d 84 58 72 be
       0.1123575 -0.008155289 0.07215418 -0.23666579
000110 73 21 bd 3d f0 34 95 bc b0 40 d0 bb 64 f4 e2 bc
       0.092348956 -0.01821372 -0.0063553676 -0.027704425

mcfe_g.conv33_interpolation_head.layers.0.weight f4 [8, 1, 3, 3]
000000 91 7f 9c bb b2 81 56 3d 7e 84 5f bd 9f 94 b7 be
       -0.0047759493 0.05236978 -0.054569714 -0.35855576
000010 13 60 a5 3e 8b 5e af be 2f 93 ea bd 23 7d 1e 3f
       0.3229986 -0.34251818 -0.11453854 0.61909693
000020 88 a0 f8 bd 25 31 51 3d a1 d8 72 bc 76 d2 a1 bd
       -0.12139994 0.05107226 -0.014822156 -0.0790147
000030 19 14 51 bc af e2 2d 3f e4 2b 1c bf fe 0b 7b bc
       -0.012761139 0.67924017 -0.6100447 -0.015322683
000040 3b 2a 41 3d 32 9c 30 bd 43 6e 90 bc 7a fc d2 3e
       0.047159415 -0.04311771 -0.017630702 0.4120825
000050 26 32 b8 bd 05 50 89 be f7 51 d5 3e 55 96 bd be
       -0.0899394 -0.26818863 0.41664097 -0.37028757
000060 b1 3d 3f bd 6a 80 93 3c 8a cc 78 bd fc 23 4d 3b
       -0.046689693 0.018005569 -0.06074194 0.0031301966
000070 fb d7 93 bd 12 47 4e bd 99 3c e3 bc 43 61 d9 3e
       -0.072189294 -0.050360747 -0.027738856 0.42457017
000080 11 4d 9c be f8 8d 06 3e 04 df 04 bf e8 46 3b bf
       -0.30527547 0.13140094 -0.51902795 -0.7315507
000090 e8 90 ab 3c 6d ba e2 bd 3a 99 87 3d e7 e9 20 3f
       0.02094312 -0.11070714 0.066210225 0.62856907
0000a0 01 fd 44 bf 85 3c c4 bd 82 f6 49 3c 8e 00 0b be
       -0.76948553 -0.09581856 0.012326838 -0.1357443
0000b0 eb 34 c1 3e cc 03 2d be 02 b4 05 3f 5b ad 82 be
       0.37735686 -0.1689598 0.52227795 -0.25522885
0000c0 78 7f 7c be 4b 7f 48 be 56 67 5e bd f6 e0 b7 3e
       -0.24658 -0.19579808 -0.054297768 0.3591382
0000d0 e4 2c 50 be d7 6b 78 3e 76 42 b6 bd 31 90 0f 3f
       -0.20329624 0.24259888 -0.08899395 0.56079394
0000e0 51 b3 4e be 5b 95 7c be 68 59 8d bd 56 02 fc 3c
       -0.20185591 -0.2466635 -0.069018185 0.030762833
0000f0 78 21 21 3c 1c 69 ed bc c8 b5 13 3d d2 3b 9f 3b
       0.00983464 -0.028980784 0.036062032 0.004859426
000100 fd 81 8c 3c fc 90 d1 bb 92 32 26 3f 34 1a 2b bf
       0.017151827 -0.0063954573 0.64920914 -0.6683686
000110 84 9f 8b bc dd 32 0d bd b1 94 42 3d 5a f6 29 3c
       -0.017043836 -0.034472335 0.047505084 0.010373676

mcfe_g.conv33_interpolation_head.layers.0.bias f4 [8]
000000 07 6d b5 bd 07 66 3c bf 4f 89 4f 3e 30 8a 89 3f
       -0.08858686 -0.7359318 0.20267223 1.0745296
000010 5b 80 69 be b6 c0 f9 be d9 0c 86 bf 8c 0c 12 3e
       -0.2280287 -0.4877984 -1.0472671 0.14262599

mcfe_g.conv33_interpolation_body.layers.0.weight f4 [1, 8, 3, 3]
000000 b8 dc 79 3e cd 04 96 be 0f 76 1e 3e 59 61 8e 3d
       0.24400604 -0.29300538 0.15474723 0.06952161
000010 9e d1 01 bf f5 c9 6c bd 45 17 1d ba 52 8e 81 bd
       -0.50710475 -0.05780979 -0.0005992542 -0.063259736
000020 01 07 18 bd 05 e3 76 bd 14 8b 1b 3e 20 82 b6 3d
       -0.037116054 -0.060275096 0.15189773 0.08911538
000030 6a 9f 62 be c2 6b f4 bd 9c 0b 28 3e 3c 94 4a be
       -0.22131124 -0.11934616 0.16410679 -0.1978311
000040 53 19 7d 3d 43 bb 97 bc 6e 1e a7 bd 7c 45 af bd
       0.06179173 -0.01852191 -0.08160101 -0.08558175
000050 03 af cc bc f3 8b db be 77 72 9a 3d fa e2 c5 be
       -0.024985796 -0.4288021 0.07541364 -0.38649732
000060 e7 f7 64 be e0 ee 1e 3e 12 04 1c be 6a 43 36 3e
       -0.22360192 0.15520811 -0.15235928 0.17799154
000070 99 62 47 be 1a 8d 08 3e de ab 77 be 00 ed a5 be
       -0.19471206 0.13335076 -0.24186656 -0.3240738
000080 83 c1 2d be 19 33 fa 3c ad 8f 85 bd 64 3d 0e 3c
       -0.1696835 0.030541943 -0.065215446 0.008681629
000090 ca 7a 9e be 0c 36 84 bd fb e9 8d bd 87 8b 55 be
       -0.30953056 -0.06455621 -0.06929394 -0.20854007
0000a0 83 d6 b8 3d 7c 85 ea bd d2 2d dc bc 4d d9 6d bd
       0.0902529 -0.114512414 -0.026877318 -0.058068562
0000b0 6d 6b 62 bb c2 fe 30 be 3a 84 7d 3d 39 21 22 be
       -0.0034548894 -0.17284682 0.06189368 -0.15832986
0000c0 d9 28 55 be 41 b7 16 3e 92 00 ff bd 46 3f ab bd
       -0.20816363 0.14718343 -0.12451281 -0.08361678
0000d0 52 3e 46 3d 1f bd 08 bd 28 70 14 3e a7 ab 9c 3c
       0.048399277 -0.033383485 0.14495909 0.019124819
0000e0 b9 31 09 3e 72 27 c3 3d dc ae 21 be b8 ba 44 be
       0.13397874 0.09529008 -0.1578936 -0.19211853
0000f0 a9 de f8 bd 3b 80 53 3e 5c 19 85 be 02 a7 54 3e
       -0.12151844 0.20654385 -0.2599591 0.20766833
000100 af ae 58 3d 7c c3 5f bd 49 64 42 3e d3 9f a8 be
       0.052900966 -0.054629788 0.18983568 -0.32934436
000110 c1 7f 9d be f2 6a 12 bd 27 4e 84 3e cb 5c 5d bc
       -0.3076153 -0.035746522 0.25840876 -0.013510893

mcfe_g.multi_core_g1.conv34_interpolation_head.layers.0.weight f4 [8, 1, 3, 4]
000000 17 12 ea 3c cb a0 31 3d 3e 20 8b bd b2 cd 63 bc
       0.028573079 0.043366235 -0.06793259 -0.013904022
000010 ae 95 d0 bd d8 f8 e6 3e 73 62 b1 bd f2 ed 66 b9
       -0.10184799 0.45111728 -0.08661356 -0.00022023151
000020 20 f2 0e 3d b4 ff cb bc ce 7f 42 be 9c a1 84 3c
       0.034898877 -0.024902202 -0.18994066 0.016190343
000030 1a 7c 64 3d 51 24 a9 3b fe 06 4d 3d 17 3a 05 3c
       0.055782415 0.0051618 0.050055496 0.0081315255
000040 9b f2 56 3d 3d 89 15 be 9d 6f 0a 3e 15 4a 78 bc
       0.05247746 -0.14603133 0.1351914 -0.015154381
000050 93 6a bd 3d ff b5 a0 bc 81 54 9b 3d 2d b7 22 3c
       0.09248843 -0.019618033 0.07584477 0.009931368
000060 eb 9d f2 3d 89 bc b3 3e c0 8e c9 3d c2 df df 3c
       0.11846527 0.35104778 0.098416805 0.027328376
000070 ad 1c 81 be 0c f6 20 3d 93 c1 a5 be f5 2d 7b bd
       -0.2521719 0.03929715 -0.32374248 -0.061323125
000080 79 ed 0a bd d8 10 1f 3e 22 0a e9 bd 8c fb 94 bc
       -0.033917878 0.15533769 -0.11378886 -0.018186353
000090 a6 ad 45 ba d7 74 88 ba 2d d0 99 3d dc 8b 2c bd
       -0.0007540829 -0.0010410798 0.075104095 -0.042125568
0000a0 09 45 be 3c 64 bf 39 bd 89 b0 03 3e 4a bb 0c be
       0.023226278 -0.04534854 0.12860312 -0.1374332
0000b0 de be 73 3c cb dd d7 3c 57 66 a1 3d 8d fd 80 bd
       0.014877049 0.026350876 0.07880848 -0.06298361
0000c0 c5 ef 49 bc f4 05 d2 bd 74 f6 0c 3d 5b 01 8c 3c
       -0.012325232 -0.10255042 0.034414724 0.01709049
0000d0 37 cc b9 bc 10 d2 d0 3e 29 47 c3 3e b9 02 86 bd
       -0.022680385 0.40785265 0.38140228 -0.06543488
0000e0 d7 cb ac 3d 7c 03 10 3e bb d9 3b 3d 58 9f c5 3c
       0.08437317 0.14063829 0.04586194 0.024123833
0000f0 de 94 a0 3c 42 b7 24 3c 96 34 26 bd 08 b5 3a 3e
       0.019602235 0.010053458 -0.040577494 0.1823312
000100 e1 d3 35 3d c9 03 69 bd 57 8c 18 bd 7b c2 5d bd
       0.044391517 -0.056888375 -0.037243214 -0.05414055
000110 f9 db c4 3d b4 d4 61 3d 4c eb af 3c 23 c4 7c 3d
       0.09612269 0.05513449 0.021474503 0.061710488
000120 c9 e2 ae bc 11 1d a9 3d c2 8c b4 bd 9b 5a 01 3d
       -0.021348374 0.08257497 -0.0881591 0.03158055
000130 3b 5e d6 3d 6b 51 01 bf 14 d5 e6 3e 8a 66 80 bd
       0.10467192 -0.5051486 0.4508444 -0.06269558
000140 22 ef 37 bd 93 d4 01 3e 2e fc dc bd 23 da cd 3c
       -0.04490579 0.12678747 -0.10790287 0.02512843
000150 d9 b6 7e be 2f 80 a1 bc 99 ca 41 bb 75 06 13 3c
       -0.24874438 -0.019714443 -0.002957022 0.008973707
000160 10 45 5c 3d 93 2b b5 3e 9f 6d af ba e7 cc c9 3a
       0.0537768 0.35384807 -0.001338411 0.0015396149
000170 9a be 25 bd fc 7c bd bb 86 60 06 3d f9 ed a1 b9
       -0.040464975 -0.0057827216 0.032806896 -0.00030885616

mcfe_g.multi_core_g1.conv34_interpolation_head.layers.0.bias f4 [8]
000000 5c 1e b3 3f 2f f8 dd 40 e0 d5 f5 3f 64 ed e9 40
       1.399364 6.936546 1.9205894 7.3102283
000010 db 54 9a 3f 48 47 c0 bf e7 e1 db 3d 5f b0 db c0
       1.2057146 -1.5021753 0.10736447 -6.8652797

mcfe_g.multi_core_g1.conv34_interpolation_body.layers.0.weight f4 [1, 8, 3, 3]
000000 05 8d 06 3e 78 67 9e be a2 17 44 3d 05 50 99 3d
       0.13139732 -0.30938315 0.0478741 0.07485966
000010 e7 19 a2 3d 3f ad 1f bc 3a a7 d3 bb 72 9b a7 bd
       0.07915097 -0.009745895 -0.006459144 -0.08183946
000020 b3 64 ee bc e3 57 d4 3c d1 f6 0c 3e 7f af 8c be
       -0.029100752 0.025920814 0.13766028 -0.27477643
000030 76 56 ff 3d 40 39 15 3d 1d e9 6e be 27 cd 04 3e
       0.12467663 0.03643155 -0.23331113 0.12968884
000040 ea c2 81 3d 00 9c 1a 3d 18 e1 89 bd 8c 13 fb bc
       0.06336005 0.03774643 -0.06732386 -0.03064897
000050 17 a1 8c bc 89 24 a8 bd e4 fb 0d be 43 05 bb bd
       -0.017166657 -0.082100935 -0.1386562 -0.09131863
000060 e5 bc 50 bd 01 50 7b 3c b1 98 12 bd f3 b8 16 be
       -0.050961394 0.015338899 -0.03579015 -0.1471899
000070 d8 b4 65 3e c7 df 3a 3d 44 d4 8a be 6f c0 98 3d
       0.22432268 0.045623567 -0.2711507 0.07458579
000080 83 95 e4 bc 08 39 fc 3a bd bc d5 3d f5 dc 6f 3c
       -0.027903324 0.0019243071 0.104363896 0.014640083
000090 02 06 97 bd 4a 5e af be 9f c9 34 3d ac ac ba 3d
       -0.07374193 -0.34251624 0.044137593 0.09114966
0000a0 8b 7d ad 3e ab ec 05 3e c9 5e 9a bc ba 96 9a bd
       0.33884844 0.13078563 -0.018844025 -0.0754828
0000b0 9d 23 8d bd 36 58 bf bc df 4a 0b 3e b1 1a 75 3c
       -0.06891558 -0.023357492 0.1360278 0.014959977
0000c0 02 c2 95 be a7 0f 01 3e ac 72 06 3d f4 e5 05 be
       -0.2924958 0.12603627 0.032824203 -0.13076001
0000d0 c9 9a b3 3d bc 49 57 3c 99 15 0a 3e ec 71 a3 3e
       0.08769757 0.013140138 0.13484801 0.31922853
0000e0 73 dd c1 3d 4d 69 0b 3e ff aa 57 3e c3 7e f8 3d
       0.09466066 0.13614388 0.21061324 0.12133553
0000f0 84 97 c3 3d df 4b 88 3d 55 b0 8b 3d aa 4a ea 3b
       0.09550384 0.06655096 0.06820742 0.007150014
000100 a5 e7 06 3c a2 3a 9a bd c6 70 be 3b 74 63 87 bc
       0.008233939 -0.075307146 0.0058117835 -0.016526915
000110 8c 9d 9c 3e e2 24 70 bc f8 80 f7 bc d5 e0 33 bd
       0.3058895 -0.014657231 -0.030212864 -0.04391559

mcfe_g.multi_core_g1.conv43_interpolation_head.layers.0.weight f4 [8, 1, 4, 3]
000000 d0 e8 e6 3c f3 a7 9d bd 3c 5b 0a c2 37 24 6a 3d
       0.028187186 -0.076980494 -34.589096 0.057163443
000010 e4 28 82 be c8 18 0e c2 1a fc 45 3d d4 ac 12 3e
       -0.25421822 -35.5242 0.048336126 0.14323741
000020 ea 5e c3 bd 42 ac 99 bc c1 c0 bb 3d 1f e0 27 bd
       -0.09539588 -0.018758897 0.09167624 -0.040985223
000030 6f 33 85 3b ad 1e b1 be c2 9e 10 3d 71 93 a4 3b
       0.0040649693 -0.34593716 0.035307653 0.005022459
000040 fe 98 34 3f 34 04 23 bd 4f 7f 8a 3c df d9 d1 be
       0.7054595 -0.03979893 0.016906409 -0.40986535
000050 ab c1 b5 3c f2 50 e0 bc 72 3f 6d 3d 38 77 d6 bc
       0.022187075 -0.027382348 0.057921834 -0.026179895
000060 00 29 75 3b e9 58 e5 bb ff 6b 11 3c d1 9c c0 bc
       0.003740847 -0.0069991243 0.008875846 -0.023512276
000070 6b 60 c2 3c 71 b7 a2 bb b1 d5 e1 bb 77 f8 27 bf
       0.023727616 -0.0049657156 -0.006891929 -0.656135
000080 77 79 ac bc 2a 37 a6 3c 77 7d 24 3f d3 b5 81 3c
       -0.021054013 0.020289976 0.64253944 0.01583377
000090 34 bb 26 bc 5f 49 81 bc 79 0a db 3c 91 93 03 3d
       -0.010176469 -0.015782056 0.026738392 0.032123152
0000a0 ac 12 05 3f fa f0 06 bf c8 95 39 3b 14 db a9 3b
       0.51981616 -0.5271145 0.0028318036 0.005183587
0000b0 6f 36 b6 bc ba c4 b6 bc b3 d3 89 3c 4d cf ae bb
       -0.022242753 -0.022310603 0.016824579 -0.005334771
0000c0 3e 7f ec be 9a 1b 26 3e 85 ea b9 be 51 60 c2 3e
       -0.46190828 0.16221467 -0.36311737 0.3796411
0000d0 8b 97 b6 bd ca 2c 97 3e c2 79 87 3d 49 9a e1 bd
       -0.08915623 0.2952636 0.0661502 -0.11015756
0000e0 b0 fa 9d 3d 3c 76 f3 3a d6 5a eb bb 4a f9 7d bb
       0.077138305 0.0018574665 -0.0071824593 -0.0038753324
0000f0 bb 95 67 bc c9 ec 27 3d d9 e1 52 bc fa 2f 52 bd
       -0.01413482 0.0409973 -0.012871229 -0.051315285
000100 95 73 16 3e 4b 3c c8 bd 4b 5c 81 3d f2 ca 00 3e
       0.14692529 -0.09777125 0.063164316 0.12577417
000110 be 9d 1d bd 36 f8 8b 3c 3b 7c 34 bd e7 99 63 bc
       -0.038480513 0.01708613 -0.044063788 -0.013891674
000120 a6 2c a7 3e 1a 15 3d bf 7d 5f 9f 3e 37 e0 a4 3d
       0.32651252 -0.73860323 0.3112754 0.08050578
000130 50 3d 32 bc 86 7e 9d 3d 65 2e e5 bc e9 79 1f bd
       -0.010878876 0.07690148 -0.027976224 -0.038934622
000140 0a 07 c3 3b 90 6d 5f bc 67 0b 0a 3d ae 9f f0 bb
       0.005951767 -0.013636962 0.03370228 -0.007343254
000150 df bf 69 bd 2a bb 90 3d 6d 52 e7 bc 42 58 a1 3c
       -0.05706775 0.07066949 -0.028237546 0.019695405
000160 47 0c 14 3c c8 41 99 bc 23 50 e1 3d 02 5e cd bd
       0.00903613 -0.018708125 0.11001613 -0.10027696
000170 fa a1 60 3d c8 b6 18 3f df 0b 28 bf 0a 55 2e bc
       0.054841973 0.596539 -0.65643114 -0.010640392

mcfe_g.multi_core_g1.conv43_interpolation_head.layers.0.bias f4 [8]
000000 77 01 f4 3f bd a1 ce 3e 0b 22 0f 3e e3 f6 3d be
       1.9062947 0.40357772 0.1397783 -0.18551211
000010 24 87 db 3c 0c 38 ef 3d 7f f6 dd be 25 32 ee bf
       0.026797839 0.11680612 -0.43352124 -1.8609053

mcfe_g.multi_core_g1.conv43_interpolation_body.layers.0.weight f4 [1, 8, 3, 3]
000000 48 16 51 ba 8b 33 0c 3d e8 3b cf 3c 39 67 76 3c
       -0.00079760375 0.034228843 0.02529712 0.015039259
000010 ac 23 2f 3f 59 31 44 bc 06 68 cd be bc 7f c5 3e
       0.68413806 -0.011974656 -0.40118426 0.38574016
000020 90 25 68 3d 10 22 7a bd 21 65 6f 3c 5c ab 1d be
       0.056676447 -0.06106764 0.014611513 -0.153974
000030 5b 16 e9 3c ba be 95 be 10 83 d9 bd 4d 64 c0 bd
       0.028453043 -0.29247075 -0.10620701 -0.09394131
000040 a7 81 13 bd 4e 0d 7d be d4 a3 0f be 11 e9 ab be
       -0.036012318 -0.24712107 -0.14027339 -0.33576253
000050 b2 68 9b be f1 e7 73 3d bb 56 4e 3d b5 0b 50 bc
       -0.30353314 0.05954737 0.05037568 -0.012698104
000060 b3 36 a9 bc f5 ea 36 bd 7a e2 26 bb f9 00 3e 3d
       -0.020655965 -0.044657666 -0.002546458 0.046387646
000070 da 94 c5 bd 21 b1 35 bd 6f 64 85 be d6 59 4f 3f
       -0.09647532 -0.044358376 -0.26053187 0.80996454
000080 74 d6 87 bd b6 c6 1d be 7c ee f7 bd c5 e5 83 3a
       -0.066327006 -0.15407833 -0.12106034 0.0010062983
000090 4d 03 ed bb 36 1e 8e 3d 36 a8 2b 3c a1 15 14 3c
       -0.0072330595 0.06939356 0.010477116 0.00903836
0000a0 3d ea 6d 3c 10 13 5f 3d dc 13 98 3c ef 0e 56 3e
       0.014521179 0.05446154 0.018564157 0.20904134
0000b0 2b 24 fd 3d 7d b6 2c be ee 1b 71 be 6f 04 9f bd
       0.12360414 -0.16866489 -0.2354581 -0.077645175
0000c0 a3 06 1c 3e 54 53 28 3e 36 85 d6 3e c1 af 89 bd
       0.15236907 0.16438037 0.41898507 -0.067229755
0000d0 f7 1e d4 bd 6a a0 02 be 52 90 7c bb ad 24 a1 3d
       -0.103574686 -0.12756506 -0.003853817 0.078683235
0000e0 7f da cd 3d 28 3d 04 bd d6 bd 84 bd 94 09 a6 bd
       0.100514404 -0.032284886 -0.06481521 -0.08107296
0000f0 77 f4 f5 3d ea a9 74 3e 0f ec 6a 3e c2 4e e2 bc
       0.120095186 0.23892942 0.22941612 -0.027625445
000100 a3 00 85 3e 97 d4 58 3e df 80 47 ba 26 4e 95 bd
       0.25977048 0.21174847 -0.0007610451 -0.07290296
000110 5b ca 34 bc c1 a7 9b 3b b4 01 0f 3d 1e 95 1a 3d
       -0.011034573 0.0047502224 0.034913734 0.037739865

mcfe_g.multi_core_g2.conv34_interpolation_head.layers.0.weight f4 [8, 1, 3, 4]
000000 7d 90 65 ba 3a d9 63 bc 3d 48 9b 3c f8 60 00 bb
       -0.0008757187 -0.013906771 0.018955344 -0.0019589048
000010 1d 75 1d bc c9 b9 9b bd ee 3c 17 bc e5 15 21 bb
       -0.0096104415 -0.07603795 -0.009230835 -0.00245797
000020 21 bb ae bb 6d 13 34 bb fd dc 8d 39 9c 44 e8 3b
       -0.005332366 -0.00274774 0.00027058265 0.007088257
000030 30 3b 15 bb 29 d4 1f 3b d1 1d fc ba c2 bb b2 3c
       -0.0022770874 0.0024387932 -0.001923496 0.021818046
000040 ca ef 9c ba 19 6c d6 ba 3e ac 2b 3c e7 36 60 3d
       -0.0011973318 -0.001635912 0.010478077 0.05473986
000050 76 a0 85 39 b8 71 4d 3b 4c 90 d8 bb c2 fc 0e bb
       0.0002548729 0.00313483 -0.0066089984 -0.0021818136
000060 8a e3 87 3c 49 16 20 be a8 fd 33 3e 52 4d b3 3b
       0.016587991 -0.15633501 0.17577231 0.005471864
000070 69 37 71 bc 58 59 8b 3c 0f 9c db bc 5d bb 3a 3c
       -0.0147226835 0.017010376 -0.026807813 0.01139721
000080 c1 49 30 3c bb d9 53 bc c6 20 81 3c 0c e4 9b bb
       0.010759772 -0.012930329 0.015762698 -0.00475741
000090 fa d3 c2 3c 3b 80 c7 bc f8 c3 5f bc c9 0d 48 3c
       0.023782719 -0.024353137 -0.013657562 0.012210318
0000a0 ec 46 82 3d 1e f0 f0 3d c6 24 12 3f 37 8c 89 3d
       0.063611835 0.11764549 0.5708736 0.06716197
0000b0 87 00 9b 3c d4 99 18 bc 3f e4 78 bd 6a 38 6e 3d
       0.01892115 -0.009314019 -0.060764547 0.05815927
0000c0 9d bb 1d b7 c9 44 a7 bc 72 23 97 3e 23 36 06 3c
       -9.401611e-06 -0.020418542 0.2951923 0.008191618
0000d0 aa 44 c6 bc 22 f3 78 bc 53 1f a9 bd 59 63 88 bd
       -0.024202663 -0.015194686 -0.08257928 -0.06659574
0000e0 3b 0d 15 3c 64 16 87 bc b6 61 a2 bc 2e 51 79 3c
       0.009097393 -0.016490169 -0.019821983 0.015217109
0000f0 c6 91 a4 39 89 1a 6f bb 76 c8 a8 bc 33 da 32 3c
       0.00031389127 -0.0036484322 -0.0206034 0.010916281
000100 f2 e5 04 bd 88 f4 be bb 2c 2d d6 3e 4a af 5d bc
       -0.032445855 -0.0058274902 0.41831338 -0.013530562
000110 7f 2c a2 3c 01 38 af 3c ea 2c 0b 3e 9a 03 a9 bc
       0.019796608 0.02138901 0.13591352 -0.0206316
000120 43 74 27 3a 26 46 8d bb 65 f3 2c bc f4 16 71 bb
       0.0006387869 -0.004311341 -0.010556077 -0.0036787363
000130 44 38 4a 3c 0a 5b b2 3c 1b 44 38 be 8c 58 41 3e
       0.012342516 0.021771926 -0.1799473 0.18881434
000140 3a 15 ef ba d9 55 a1 3c 5b a0 09 be b1 39 21 3e
       -0.0018240579 0.019694256 -0.13440077 0.15744664
000150 15 cd 41 3d e8 b0 d2 3d 61 35 18 3e ea 4b d1 3c
       0.047314722 0.102876484 0.14864112 0.025548894
000160 6b 52 43 3a 3e 57 af 3d e1 3c db bd 5c 51 94 3c
       0.0007450941 0.08561562 -0.10704971 0.018105201
000170 73 04 a0 3c 1b 16 8e bd 09 51 90 3d b3 95 b4 bb
       0.019533372 -0.0693781 0.07046706 -0.0055110096

mcfe_g.multi_core_g2.conv34_interpolation_head.layers.0.bias f4 [8]
000000 39 e7 0f 41 7a 56 35 c1 8f 83 e7 3f 03 1a b5 be
       8.993951 -11.333612 1.8087023 -0.35371408
000010 09 e0 0a c0 f4 8b 14 3f c7 77 32 40 91 ad 29 41
       -2.169924 0.5802605 2.7885606 10.604875

mcfe_g.multi_core_g2.conv34_interpolation_body.layers.0.weight f4 [1, 8, 3, 3]
000000 e5 54 99 bd db 81 0f be 04 0a b1 bd c8 1e f4 bd
       -0.074868955 -0.1401438 -0.086444885 -0.119199336
000010 1b 73 8c 3d a3 cb ae 3e eb d7 a2 39 4f aa ac bc
       0.06857892 0.34139737 0.0003105992 -0.021077303
000020 5b 14 cf 3e b7 63 cb be c3 21 82 bd 67 b1 0f bc
       0.40445217 -0.39724514 -0.06354096 -0.008770323
000030 23 16 d8 3e 45 3f a1 bd 06 f8 4e bd c2 00 3a 3f
       0.4220439 -0.07873396 -0.050529502 0.72657406
000040 89 bc 93 bd ed 07 28 be 01 db 87 3c f6 d6 0a 3d
       -0.072136946 -0.16409273 0.016583921 0.03389641
000050 e3 82 62 3c 83 c1 c7 3c 14 45 8e bc f4 e6 2e ba
       0.013825151 0.024384266 -0.017366923 -0.0006671988
000060 00 32 08 bd 10 60 8d be e3 52 e8 3d 4b 67 d8 bd
       -0.03325081 -0.27612352 0.113439344 -0.105665766
000070 49 12 78 be d8 e6 19 bd 4a d2 6f be 28 e1 34 3c
       -0.24225725 -0.037573665 -0.23420063 0.01104001
000080 c8 df 39 3e 90 31 0a 3d 76 cf e8 3e 21 d9 11 bd
       0.18151772 0.033738673 0.4547078 -0.03560746
000090 a4 aa 94 bc e9 e8 2f bc 52 43 a8 bc 3b f6 83 bc
       -0.018147774 -0.010736682 -0.020539913 -0.016108623
0000a0 b0 e6 70 3c 30 75 f6 bc 33 d4 3c bd 3e 3c 38 3e
       0.014703438 -0.030085176 -0.046100806 0.1799173
0000b0 99 f3 9b bd cc 4d 93 3d 52 d4 b9 3e 2a 61 a0 3d
       -0.07614822 0.07192573 0.362948 0.078310326
0000c0 a2 f0 ae be 22 34 c8 bd f7 44 15 bd ec 9f ca bd
       -0.34167963 -0.097755685 -0.036442723 -0.09893784
0000d0 f6 dd 52 3e 37 d8 dc bd ab fe 47 3d bc 98 d4 3c
       0.20592484 -0.10783427 0.048826855 0.025951736
0000e0 55 d8 c6 3c 49 ba 54 3e 27 a6 ec bd ea f3 94 3c
       0.024273077 0.20774187 -0.115551285 0.018182714
0000f0 de 0e 8c bc b6 41 65 3d c3 cb d1 bc da 32 bb bc
       -0.017096933 0.05597087 -0.025609856 -0.022851396
000100 76 f4 6a 3d 87 ca 43 bc 45 2c a4 3e 56 e4 0e 3e
       0.057362042 -0.011950142 0.32065025 0.13954291
000110 3a 72 83 3d db b0 cb bc 83 3f 55 be 7a 5c f0 be
       0.06418271 -0.024864605 -0.20825009 -0.46945554
